node {
  name: "Placeholder"
  op: "Placeholder"
  attr {
    key: "dtype"
    value {
      type: DT_FLOAT
    }
  }
  attr {
    key: "shape"
    value {
      shape {
        dim {
          size: -1
        }
        dim {
          size: -1
        }
        dim {
          size: 3
        }
      }
    }
  }
}
node {
  name: "style_resizer/resize_image_with_crop_or_pad/ExpandDims/dim"
  op: "Const"
  attr {
    key: "dtype"
    value {
      type: DT_INT32
    }
  }
  attr {
    key: "value"
    value {
      tensor {
        dtype: DT_INT32
        tensor_shape {
        }
        int_val: 0
      }
    }
  }
}
node {
  name: "style_resizer/resize_image_with_crop_or_pad/ExpandDims"
  op: "ExpandDims"
  input: "Placeholder"
  input: "style_resizer/resize_image_with_crop_or_pad/ExpandDims/dim"
  attr {
    key: "T"
    value {
      type: DT_FLOAT
    }
  }
  attr {
    key: "Tdim"
    value {
      type: DT_INT32
    }
  }
}
node {
  name: "style_resizer/resize_image_with_crop_or_pad/Shape"
  op: "Shape"
  input: "style_resizer/resize_image_with_crop_or_pad/ExpandDims"
  attr {
    key: "T"
    value {
      type: DT_FLOAT
    }
  }
  attr {
    key: "out_type"
    value {
      type: DT_INT32
    }
  }
}
node {
  name: "style_resizer/resize_image_with_crop_or_pad/assert_positive/Const"
  op: "Const"
  attr {
    key: "dtype"
    value {
      type: DT_INT32
    }
  }
  attr {
    key: "value"
    value {
      tensor {
        dtype: DT_INT32
        tensor_shape {
        }
        int_val: 0
      }
    }
  }
}
node {
  name: "style_resizer/resize_image_with_crop_or_pad/assert_positive/assert_less/Less"
  op: "Less"
  input: "style_resizer/resize_image_with_crop_or_pad/assert_positive/Const"
  input: "style_resizer/resize_image_with_crop_or_pad/Shape"
  attr {
    key: "T"
    value {
      type: DT_INT32
    }
  }
}
node {
  name: "style_resizer/resize_image_with_crop_or_pad/assert_positive/assert_less/Const"
  op: "Const"
  attr {
    key: "dtype"
    value {
      type: DT_INT32
    }
  }
  attr {
    key: "value"
    value {
      tensor {
        dtype: DT_INT32
        tensor_shape {
          dim {
            size: 1
          }
        }
        int_val: 0
      }
    }
  }
}
node {
  name: "style_resizer/resize_image_with_crop_or_pad/assert_positive/assert_less/All"
  op: "All"
  input: "style_resizer/resize_image_with_crop_or_pad/assert_positive/assert_less/Less"
  input: "style_resizer/resize_image_with_crop_or_pad/assert_positive/assert_less/Const"
  attr {
    key: "Tidx"
    value {
      type: DT_INT32
    }
  }
  attr {
    key: "keep_dims"
    value {
      b: false
    }
  }
}
node {
  name: "style_resizer/resize_image_with_crop_or_pad/assert_positive/assert_less/Assert/Const"
  op: "Const"
  attr {
    key: "dtype"
    value {
      type: DT_STRING
    }
  }
  attr {
    key: "value"
    value {
      tensor {
        dtype: DT_STRING
        tensor_shape {
        }
        string_val: "all dims of \'image.shape\' must be > 0."
      }
    }
  }
}
node {
  name: "style_resizer/resize_image_with_crop_or_pad/assert_positive/assert_less/Assert/Assert/data_0"
  op: "Const"
  attr {
    key: "dtype"
    value {
      type: DT_STRING
    }
  }
  attr {
    key: "value"
    value {
      tensor {
        dtype: DT_STRING
        tensor_shape {
        }
        string_val: "all dims of \'image.shape\' must be > 0."
      }
    }
  }
}
node {
  name: "style_resizer/resize_image_with_crop_or_pad/assert_positive/assert_less/Assert/Assert"
  op: "Assert"
  input: "style_resizer/resize_image_with_crop_or_pad/assert_positive/assert_less/All"
  input: "style_resizer/resize_image_with_crop_or_pad/assert_positive/assert_less/Assert/Assert/data_0"
  attr {
    key: "T"
    value {
      list {
        type: DT_STRING
      }
    }
  }
  attr {
    key: "summarize"
    value {
      i: 3
    }
  }
}
node {
  name: "style_resizer/resize_image_with_crop_or_pad/control_dependency"
  op: "Identity"
  input: "style_resizer/resize_image_with_crop_or_pad/ExpandDims"
  input: "^style_resizer/resize_image_with_crop_or_pad/assert_positive/assert_less/Assert/Assert"
  attr {
    key: "T"
    value {
      type: DT_FLOAT
    }
  }
  attr {
    key: "_class"
    value {
      list {
        s: "loc:@style_resizer/resize_image_with_crop_or_pad/ExpandDims"
      }
    }
  }
}
node {
  name: "style_resizer/resize_image_with_crop_or_pad/Shape_1"
  op: "Shape"
  input: "style_resizer/resize_image_with_crop_or_pad/control_dependency"
  attr {
    key: "T"
    value {
      type: DT_FLOAT
    }
  }
  attr {
    key: "out_type"
    value {
      type: DT_INT32
    }
  }
}
node {
  name: "style_resizer/resize_image_with_crop_or_pad/unstack"
  op: "Unpack"
  input: "style_resizer/resize_image_with_crop_or_pad/Shape_1"
  attr {
    key: "T"
    value {
      type: DT_INT32
    }
  }
  attr {
    key: "axis"
    value {
      i: 0
    }
  }
  attr {
    key: "num"
    value {
      i: 4
    }
  }
}
node {
  name: "style_resizer/resize_image_with_crop_or_pad/sub/x"
  op: "Const"
  attr {
    key: "dtype"
    value {
      type: DT_INT32
    }
  }
  attr {
    key: "value"
    value {
      tensor {
        dtype: DT_INT32
        tensor_shape {
        }
        int_val: 300
      }
    }
  }
}
node {
  name: "style_resizer/resize_image_with_crop_or_pad/sub"
  op: "Sub"
  input: "style_resizer/resize_image_with_crop_or_pad/sub/x"
  input: "style_resizer/resize_image_with_crop_or_pad/unstack:2"
  attr {
    key: "T"
    value {
      type: DT_INT32
    }
  }
}
node {
  name: "style_resizer/resize_image_with_crop_or_pad/Neg"
  op: "Neg"
  input: "style_resizer/resize_image_with_crop_or_pad/sub"
  attr {
    key: "T"
    value {
      type: DT_INT32
    }
  }
}
node {
  name: "style_resizer/resize_image_with_crop_or_pad/floordiv/y"
  op: "Const"
  attr {
    key: "dtype"
    value {
      type: DT_INT32
    }
  }
  attr {
    key: "value"
    value {
      tensor {
        dtype: DT_INT32
        tensor_shape {
        }
        int_val: 2
      }
    }
  }
}
node {
  name: "style_resizer/resize_image_with_crop_or_pad/floordiv"
  op: "FloorDiv"
  input: "style_resizer/resize_image_with_crop_or_pad/Neg"
  input: "style_resizer/resize_image_with_crop_or_pad/floordiv/y"
  attr {
    key: "T"
    value {
      type: DT_INT32
    }
  }
}
node {
  name: "style_resizer/resize_image_with_crop_or_pad/Maximum/y"
  op: "Const"
  attr {
    key: "dtype"
    value {
      type: DT_INT32
    }
  }
  attr {
    key: "value"
    value {
      tensor {
        dtype: DT_INT32
        tensor_shape {
        }
        int_val: 0
      }
    }
  }
}
node {
  name: "style_resizer/resize_image_with_crop_or_pad/Maximum"
  op: "Maximum"
  input: "style_resizer/resize_image_with_crop_or_pad/floordiv"
  input: "style_resizer/resize_image_with_crop_or_pad/Maximum/y"
  attr {
    key: "T"
    value {
      type: DT_INT32
    }
  }
}
node {
  name: "style_resizer/resize_image_with_crop_or_pad/floordiv_1/y"
  op: "Const"
  attr {
    key: "dtype"
    value {
      type: DT_INT32
    }
  }
  attr {
    key: "value"
    value {
      tensor {
        dtype: DT_INT32
        tensor_shape {
        }
        int_val: 2
      }
    }
  }
}
node {
  name: "style_resizer/resize_image_with_crop_or_pad/floordiv_1"
  op: "FloorDiv"
  input: "style_resizer/resize_image_with_crop_or_pad/sub"
  input: "style_resizer/resize_image_with_crop_or_pad/floordiv_1/y"
  attr {
    key: "T"
    value {
      type: DT_INT32
    }
  }
}
node {
  name: "style_resizer/resize_image_with_crop_or_pad/Maximum_1/y"
  op: "Const"
  attr {
    key: "dtype"
    value {
      type: DT_INT32
    }
  }
  attr {
    key: "value"
    value {
      tensor {
        dtype: DT_INT32
        tensor_shape {
        }
        int_val: 0
      }
    }
  }
}
node {
  name: "style_resizer/resize_image_with_crop_or_pad/Maximum_1"
  op: "Maximum"
  input: "style_resizer/resize_image_with_crop_or_pad/floordiv_1"
  input: "style_resizer/resize_image_with_crop_or_pad/Maximum_1/y"
  attr {
    key: "T"
    value {
      type: DT_INT32
    }
  }
}
node {
  name: "style_resizer/resize_image_with_crop_or_pad/sub_1/x"
  op: "Const"
  attr {
    key: "dtype"
    value {
      type: DT_INT32
    }
  }
  attr {
    key: "value"
    value {
      tensor {
        dtype: DT_INT32
        tensor_shape {
        }
        int_val: 300
      }
    }
  }
}
node {
  name: "style_resizer/resize_image_with_crop_or_pad/sub_1"
  op: "Sub"
  input: "style_resizer/resize_image_with_crop_or_pad/sub_1/x"
  input: "style_resizer/resize_image_with_crop_or_pad/unstack:1"
  attr {
    key: "T"
    value {
      type: DT_INT32
    }
  }
}
node {
  name: "style_resizer/resize_image_with_crop_or_pad/Neg_1"
  op: "Neg"
  input: "style_resizer/resize_image_with_crop_or_pad/sub_1"
  attr {
    key: "T"
    value {
      type: DT_INT32
    }
  }
}
node {
  name: "style_resizer/resize_image_with_crop_or_pad/floordiv_2/y"
  op: "Const"
  attr {
    key: "dtype"
    value {
      type: DT_INT32
    }
  }
  attr {
    key: "value"
    value {
      tensor {
        dtype: DT_INT32
        tensor_shape {
        }
        int_val: 2
      }
    }
  }
}
node {
  name: "style_resizer/resize_image_with_crop_or_pad/floordiv_2"
  op: "FloorDiv"
  input: "style_resizer/resize_image_with_crop_or_pad/Neg_1"
  input: "style_resizer/resize_image_with_crop_or_pad/floordiv_2/y"
  attr {
    key: "T"
    value {
      type: DT_INT32
    }
  }
}
node {
  name: "style_resizer/resize_image_with_crop_or_pad/Maximum_2/y"
  op: "Const"
  attr {
    key: "dtype"
    value {
      type: DT_INT32
    }
  }
  attr {
    key: "value"
    value {
      tensor {
        dtype: DT_INT32
        tensor_shape {
        }
        int_val: 0
      }
    }
  }
}
node {
  name: "style_resizer/resize_image_with_crop_or_pad/Maximum_2"
  op: "Maximum"
  input: "style_resizer/resize_image_with_crop_or_pad/floordiv_2"
  input: "style_resizer/resize_image_with_crop_or_pad/Maximum_2/y"
  attr {
    key: "T"
    value {
      type: DT_INT32
    }
  }
}
node {
  name: "style_resizer/resize_image_with_crop_or_pad/floordiv_3/y"
  op: "Const"
  attr {
    key: "dtype"
    value {
      type: DT_INT32
    }
  }
  attr {
    key: "value"
    value {
      tensor {
        dtype: DT_INT32
        tensor_shape {
        }
        int_val: 2
      }
    }
  }
}
node {
  name: "style_resizer/resize_image_with_crop_or_pad/floordiv_3"
  op: "FloorDiv"
  input: "style_resizer/resize_image_with_crop_or_pad/sub_1"
  input: "style_resizer/resize_image_with_crop_or_pad/floordiv_3/y"
  attr {
    key: "T"
    value {
      type: DT_INT32
    }
  }
}
node {
  name: "style_resizer/resize_image_with_crop_or_pad/Maximum_3/y"
  op: "Const"
  attr {
    key: "dtype"
    value {
      type: DT_INT32
    }
  }
  attr {
    key: "value"
    value {
      tensor {
        dtype: DT_INT32
        tensor_shape {
        }
        int_val: 0
      }
    }
  }
}
node {
  name: "style_resizer/resize_image_with_crop_or_pad/Maximum_3"
  op: "Maximum"
  input: "style_resizer/resize_image_with_crop_or_pad/floordiv_3"
  input: "style_resizer/resize_image_with_crop_or_pad/Maximum_3/y"
  attr {
    key: "T"
    value {
      type: DT_INT32
    }
  }
}
node {
  name: "style_resizer/resize_image_with_crop_or_pad/Minimum/x"
  op: "Const"
  attr {
    key: "dtype"
    value {
      type: DT_INT32
    }
  }
  attr {
    key: "value"
    value {
      tensor {
        dtype: DT_INT32
        tensor_shape {
        }
        int_val: 300
      }
    }
  }
}
node {
  name: "style_resizer/resize_image_with_crop_or_pad/Minimum"
  op: "Minimum"
  input: "style_resizer/resize_image_with_crop_or_pad/Minimum/x"
  input: "style_resizer/resize_image_with_crop_or_pad/unstack:1"
  attr {
    key: "T"
    value {
      type: DT_INT32
    }
  }
}
node {
  name: "style_resizer/resize_image_with_crop_or_pad/Minimum_1/x"
  op: "Const"
  attr {
    key: "dtype"
    value {
      type: DT_INT32
    }
  }
  attr {
    key: "value"
    value {
      tensor {
        dtype: DT_INT32
        tensor_shape {
        }
        int_val: 300
      }
    }
  }
}
node {
  name: "style_resizer/resize_image_with_crop_or_pad/Minimum_1"
  op: "Minimum"
  input: "style_resizer/resize_image_with_crop_or_pad/Minimum_1/x"
  input: "style_resizer/resize_image_with_crop_or_pad/unstack:2"
  attr {
    key: "T"
    value {
      type: DT_INT32
    }
  }
}
node {
  name: "style_resizer/resize_image_with_crop_or_pad/crop_to_bounding_box/Shape"
  op: "Shape"
  input: "style_resizer/resize_image_with_crop_or_pad/control_dependency"
  attr {
    key: "T"
    value {
      type: DT_FLOAT
    }
  }
  attr {
    key: "out_type"
    value {
      type: DT_INT32
    }
  }
}
node {
  name: "style_resizer/resize_image_with_crop_or_pad/crop_to_bounding_box/assert_positive/Const"
  op: "Const"
  attr {
    key: "dtype"
    value {
      type: DT_INT32
    }
  }
  attr {
    key: "value"
    value {
      tensor {
        dtype: DT_INT32
        tensor_shape {
        }
        int_val: 0
      }
    }
  }
}
node {
  name: "style_resizer/resize_image_with_crop_or_pad/crop_to_bounding_box/assert_positive/assert_less/Less"
  op: "Less"
  input: "style_resizer/resize_image_with_crop_or_pad/crop_to_bounding_box/assert_positive/Const"
  input: "style_resizer/resize_image_with_crop_or_pad/crop_to_bounding_box/Shape"
  attr {
    key: "T"
    value {
      type: DT_INT32
    }
  }
}
node {
  name: "style_resizer/resize_image_with_crop_or_pad/crop_to_bounding_box/assert_positive/assert_less/Const"
  op: "Const"
  attr {
    key: "dtype"
    value {
      type: DT_INT32
    }
  }
  attr {
    key: "value"
    value {
      tensor {
        dtype: DT_INT32
        tensor_shape {
          dim {
            size: 1
          }
        }
        int_val: 0
      }
    }
  }
}
node {
  name: "style_resizer/resize_image_with_crop_or_pad/crop_to_bounding_box/assert_positive/assert_less/All"
  op: "All"
  input: "style_resizer/resize_image_with_crop_or_pad/crop_to_bounding_box/assert_positive/assert_less/Less"
  input: "style_resizer/resize_image_with_crop_or_pad/crop_to_bounding_box/assert_positive/assert_less/Const"
  attr {
    key: "Tidx"
    value {
      type: DT_INT32
    }
  }
  attr {
    key: "keep_dims"
    value {
      b: false
    }
  }
}
node {
  name: "style_resizer/resize_image_with_crop_or_pad/crop_to_bounding_box/assert_positive/assert_less/Assert/Const"
  op: "Const"
  attr {
    key: "dtype"
    value {
      type: DT_STRING
    }
  }
  attr {
    key: "value"
    value {
      tensor {
        dtype: DT_STRING
        tensor_shape {
        }
        string_val: "all dims of \'image.shape\' must be > 0."
      }
    }
  }
}
node {
  name: "style_resizer/resize_image_with_crop_or_pad/crop_to_bounding_box/assert_positive/assert_less/Assert/Assert/data_0"
  op: "Const"
  attr {
    key: "dtype"
    value {
      type: DT_STRING
    }
  }
  attr {
    key: "value"
    value {
      tensor {
        dtype: DT_STRING
        tensor_shape {
        }
        string_val: "all dims of \'image.shape\' must be > 0."
      }
    }
  }
}
node {
  name: "style_resizer/resize_image_with_crop_or_pad/crop_to_bounding_box/assert_positive/assert_less/Assert/Assert"
  op: "Assert"
  input: "style_resizer/resize_image_with_crop_or_pad/crop_to_bounding_box/assert_positive/assert_less/All"
  input: "style_resizer/resize_image_with_crop_or_pad/crop_to_bounding_box/assert_positive/assert_less/Assert/Assert/data_0"
  attr {
    key: "T"
    value {
      list {
        type: DT_STRING
      }
    }
  }
  attr {
    key: "summarize"
    value {
      i: 3
    }
  }
}
node {
  name: "style_resizer/resize_image_with_crop_or_pad/crop_to_bounding_box/Shape_1"
  op: "Shape"
  input: "style_resizer/resize_image_with_crop_or_pad/control_dependency"
  attr {
    key: "T"
    value {
      type: DT_FLOAT
    }
  }
  attr {
    key: "out_type"
    value {
      type: DT_INT32
    }
  }
}
node {
  name: "style_resizer/resize_image_with_crop_or_pad/crop_to_bounding_box/unstack"
  op: "Unpack"
  input: "style_resizer/resize_image_with_crop_or_pad/crop_to_bounding_box/Shape_1"
  attr {
    key: "T"
    value {
      type: DT_INT32
    }
  }
  attr {
    key: "axis"
    value {
      i: 0
    }
  }
  attr {
    key: "num"
    value {
      i: 4
    }
  }
}
node {
  name: "style_resizer/resize_image_with_crop_or_pad/crop_to_bounding_box/GreaterEqual/y"
  op: "Const"
  attr {
    key: "dtype"
    value {
      type: DT_INT32
    }
  }
  attr {
    key: "value"
    value {
      tensor {
        dtype: DT_INT32
        tensor_shape {
        }
        int_val: 0
      }
    }
  }
}
node {
  name: "style_resizer/resize_image_with_crop_or_pad/crop_to_bounding_box/GreaterEqual"
  op: "GreaterEqual"
  input: "style_resizer/resize_image_with_crop_or_pad/Maximum"
  input: "style_resizer/resize_image_with_crop_or_pad/crop_to_bounding_box/GreaterEqual/y"
  attr {
    key: "T"
    value {
      type: DT_INT32
    }
  }
}
node {
  name: "style_resizer/resize_image_with_crop_or_pad/crop_to_bounding_box/Assert/Const"
  op: "Const"
  attr {
    key: "dtype"
    value {
      type: DT_STRING
    }
  }
  attr {
    key: "value"
    value {
      tensor {
        dtype: DT_STRING
        tensor_shape {
        }
        string_val: "offset_width must be >= 0."
      }
    }
  }
}
node {
  name: "style_resizer/resize_image_with_crop_or_pad/crop_to_bounding_box/Assert/Assert/data_0"
  op: "Const"
  attr {
    key: "dtype"
    value {
      type: DT_STRING
    }
  }
  attr {
    key: "value"
    value {
      tensor {
        dtype: DT_STRING
        tensor_shape {
        }
        string_val: "offset_width must be >= 0."
      }
    }
  }
}
node {
  name: "style_resizer/resize_image_with_crop_or_pad/crop_to_bounding_box/Assert/Assert"
  op: "Assert"
  input: "style_resizer/resize_image_with_crop_or_pad/crop_to_bounding_box/GreaterEqual"
  input: "style_resizer/resize_image_with_crop_or_pad/crop_to_bounding_box/Assert/Assert/data_0"
  attr {
    key: "T"
    value {
      list {
        type: DT_STRING
      }
    }
  }
  attr {
    key: "summarize"
    value {
      i: 3
    }
  }
}
node {
  name: "style_resizer/resize_image_with_crop_or_pad/crop_to_bounding_box/GreaterEqual_1/y"
  op: "Const"
  attr {
    key: "dtype"
    value {
      type: DT_INT32
    }
  }
  attr {
    key: "value"
    value {
      tensor {
        dtype: DT_INT32
        tensor_shape {
        }
        int_val: 0
      }
    }
  }
}
node {
  name: "style_resizer/resize_image_with_crop_or_pad/crop_to_bounding_box/GreaterEqual_1"
  op: "GreaterEqual"
  input: "style_resizer/resize_image_with_crop_or_pad/Maximum_2"
  input: "style_resizer/resize_image_with_crop_or_pad/crop_to_bounding_box/GreaterEqual_1/y"
  attr {
    key: "T"
    value {
      type: DT_INT32
    }
  }
}
node {
  name: "style_resizer/resize_image_with_crop_or_pad/crop_to_bounding_box/Assert_1/Const"
  op: "Const"
  attr {
    key: "dtype"
    value {
      type: DT_STRING
    }
  }
  attr {
    key: "value"
    value {
      tensor {
        dtype: DT_STRING
        tensor_shape {
        }
        string_val: "offset_height must be >= 0."
      }
    }
  }
}
node {
  name: "style_resizer/resize_image_with_crop_or_pad/crop_to_bounding_box/Assert_1/Assert/data_0"
  op: "Const"
  attr {
    key: "dtype"
    value {
      type: DT_STRING
    }
  }
  attr {
    key: "value"
    value {
      tensor {
        dtype: DT_STRING
        tensor_shape {
        }
        string_val: "offset_height must be >= 0."
      }
    }
  }
}
node {
  name: "style_resizer/resize_image_with_crop_or_pad/crop_to_bounding_box/Assert_1/Assert"
  op: "Assert"
  input: "style_resizer/resize_image_with_crop_or_pad/crop_to_bounding_box/GreaterEqual_1"
  input: "style_resizer/resize_image_with_crop_or_pad/crop_to_bounding_box/Assert_1/Assert/data_0"
  attr {
    key: "T"
    value {
      list {
        type: DT_STRING
      }
    }
  }
  attr {
    key: "summarize"
    value {
      i: 3
    }
  }
}
node {
  name: "style_resizer/resize_image_with_crop_or_pad/crop_to_bounding_box/Greater/y"
  op: "Const"
  attr {
    key: "dtype"
    value {
      type: DT_INT32
    }
  }
  attr {
    key: "value"
    value {
      tensor {
        dtype: DT_INT32
        tensor_shape {
        }
        int_val: 0
      }
    }
  }
}
node {
  name: "style_resizer/resize_image_with_crop_or_pad/crop_to_bounding_box/Greater"
  op: "Greater"
  input: "style_resizer/resize_image_with_crop_or_pad/Minimum_1"
  input: "style_resizer/resize_image_with_crop_or_pad/crop_to_bounding_box/Greater/y"
  attr {
    key: "T"
    value {
      type: DT_INT32
    }
  }
}
node {
  name: "style_resizer/resize_image_with_crop_or_pad/crop_to_bounding_box/Assert_2/Const"
  op: "Const"
  attr {
    key: "dtype"
    value {
      type: DT_STRING
    }
  }
  attr {
    key: "value"
    value {
      tensor {
        dtype: DT_STRING
        tensor_shape {
        }
        string_val: "target_width must be > 0."
      }
    }
  }
}
node {
  name: "style_resizer/resize_image_with_crop_or_pad/crop_to_bounding_box/Assert_2/Assert/data_0"
  op: "Const"
  attr {
    key: "dtype"
    value {
      type: DT_STRING
    }
  }
  attr {
    key: "value"
    value {
      tensor {
        dtype: DT_STRING
        tensor_shape {
        }
        string_val: "target_width must be > 0."
      }
    }
  }
}
node {
  name: "style_resizer/resize_image_with_crop_or_pad/crop_to_bounding_box/Assert_2/Assert"
  op: "Assert"
  input: "style_resizer/resize_image_with_crop_or_pad/crop_to_bounding_box/Greater"
  input: "style_resizer/resize_image_with_crop_or_pad/crop_to_bounding_box/Assert_2/Assert/data_0"
  attr {
    key: "T"
    value {
      list {
        type: DT_STRING
      }
    }
  }
  attr {
    key: "summarize"
    value {
      i: 3
    }
  }
}
node {
  name: "style_resizer/resize_image_with_crop_or_pad/crop_to_bounding_box/Greater_1/y"
  op: "Const"
  attr {
    key: "dtype"
    value {
      type: DT_INT32
    }
  }
  attr {
    key: "value"
    value {
      tensor {
        dtype: DT_INT32
        tensor_shape {
        }
        int_val: 0
      }
    }
  }
}
node {
  name: "style_resizer/resize_image_with_crop_or_pad/crop_to_bounding_box/Greater_1"
  op: "Greater"
  input: "style_resizer/resize_image_with_crop_or_pad/Minimum"
  input: "style_resizer/resize_image_with_crop_or_pad/crop_to_bounding_box/Greater_1/y"
  attr {
    key: "T"
    value {
      type: DT_INT32
    }
  }
}
node {
  name: "style_resizer/resize_image_with_crop_or_pad/crop_to_bounding_box/Assert_3/Const"
  op: "Const"
  attr {
    key: "dtype"
    value {
      type: DT_STRING
    }
  }
  attr {
    key: "value"
    value {
      tensor {
        dtype: DT_STRING
        tensor_shape {
        }
        string_val: "target_height must be > 0."
      }
    }
  }
}
node {
  name: "style_resizer/resize_image_with_crop_or_pad/crop_to_bounding_box/Assert_3/Assert/data_0"
  op: "Const"
  attr {
    key: "dtype"
    value {
      type: DT_STRING
    }
  }
  attr {
    key: "value"
    value {
      tensor {
        dtype: DT_STRING
        tensor_shape {
        }
        string_val: "target_height must be > 0."
      }
    }
  }
}
node {
  name: "style_resizer/resize_image_with_crop_or_pad/crop_to_bounding_box/Assert_3/Assert"
  op: "Assert"
  input: "style_resizer/resize_image_with_crop_or_pad/crop_to_bounding_box/Greater_1"
  input: "style_resizer/resize_image_with_crop_or_pad/crop_to_bounding_box/Assert_3/Assert/data_0"
  attr {
    key: "T"
    value {
      list {
        type: DT_STRING
      }
    }
  }
  attr {
    key: "summarize"
    value {
      i: 3
    }
  }
}
node {
  name: "style_resizer/resize_image_with_crop_or_pad/crop_to_bounding_box/add"
  op: "Add"
  input: "style_resizer/resize_image_with_crop_or_pad/Minimum_1"
  input: "style_resizer/resize_image_with_crop_or_pad/Maximum"
  attr {
    key: "T"
    value {
      type: DT_INT32
    }
  }
}
node {
  name: "style_resizer/resize_image_with_crop_or_pad/crop_to_bounding_box/GreaterEqual_2"
  op: "GreaterEqual"
  input: "style_resizer/resize_image_with_crop_or_pad/crop_to_bounding_box/unstack:2"
  input: "style_resizer/resize_image_with_crop_or_pad/crop_to_bounding_box/add"
  attr {
    key: "T"
    value {
      type: DT_INT32
    }
  }
}
node {
  name: "style_resizer/resize_image_with_crop_or_pad/crop_to_bounding_box/Assert_4/Const"
  op: "Const"
  attr {
    key: "dtype"
    value {
      type: DT_STRING
    }
  }
  attr {
    key: "value"
    value {
      tensor {
        dtype: DT_STRING
        tensor_shape {
        }
        string_val: "width must be >= target + offset."
      }
    }
  }
}
node {
  name: "style_resizer/resize_image_with_crop_or_pad/crop_to_bounding_box/Assert_4/Assert/data_0"
  op: "Const"
  attr {
    key: "dtype"
    value {
      type: DT_STRING
    }
  }
  attr {
    key: "value"
    value {
      tensor {
        dtype: DT_STRING
        tensor_shape {
        }
        string_val: "width must be >= target + offset."
      }
    }
  }
}
node {
  name: "style_resizer/resize_image_with_crop_or_pad/crop_to_bounding_box/Assert_4/Assert"
  op: "Assert"
  input: "style_resizer/resize_image_with_crop_or_pad/crop_to_bounding_box/GreaterEqual_2"
  input: "style_resizer/resize_image_with_crop_or_pad/crop_to_bounding_box/Assert_4/Assert/data_0"
  attr {
    key: "T"
    value {
      list {
        type: DT_STRING
      }
    }
  }
  attr {
    key: "summarize"
    value {
      i: 3
    }
  }
}
node {
  name: "style_resizer/resize_image_with_crop_or_pad/crop_to_bounding_box/add_1"
  op: "Add"
  input: "style_resizer/resize_image_with_crop_or_pad/Minimum"
  input: "style_resizer/resize_image_with_crop_or_pad/Maximum_2"
  attr {
    key: "T"
    value {
      type: DT_INT32
    }
  }
}
node {
  name: "style_resizer/resize_image_with_crop_or_pad/crop_to_bounding_box/GreaterEqual_3"
  op: "GreaterEqual"
  input: "style_resizer/resize_image_with_crop_or_pad/crop_to_bounding_box/unstack:1"
  input: "style_resizer/resize_image_with_crop_or_pad/crop_to_bounding_box/add_1"
  attr {
    key: "T"
    value {
      type: DT_INT32
    }
  }
}
node {
  name: "style_resizer/resize_image_with_crop_or_pad/crop_to_bounding_box/Assert_5/Const"
  op: "Const"
  attr {
    key: "dtype"
    value {
      type: DT_STRING
    }
  }
  attr {
    key: "value"
    value {
      tensor {
        dtype: DT_STRING
        tensor_shape {
        }
        string_val: "height must be >= target + offset."
      }
    }
  }
}
node {
  name: "style_resizer/resize_image_with_crop_or_pad/crop_to_bounding_box/Assert_5/Assert/data_0"
  op: "Const"
  attr {
    key: "dtype"
    value {
      type: DT_STRING
    }
  }
  attr {
    key: "value"
    value {
      tensor {
        dtype: DT_STRING
        tensor_shape {
        }
        string_val: "height must be >= target + offset."
      }
    }
  }
}
node {
  name: "style_resizer/resize_image_with_crop_or_pad/crop_to_bounding_box/Assert_5/Assert"
  op: "Assert"
  input: "style_resizer/resize_image_with_crop_or_pad/crop_to_bounding_box/GreaterEqual_3"
  input: "style_resizer/resize_image_with_crop_or_pad/crop_to_bounding_box/Assert_5/Assert/data_0"
  attr {
    key: "T"
    value {
      list {
        type: DT_STRING
      }
    }
  }
  attr {
    key: "summarize"
    value {
      i: 3
    }
  }
}
node {
  name: "style_resizer/resize_image_with_crop_or_pad/crop_to_bounding_box/control_dependency"
  op: "Identity"
  input: "style_resizer/resize_image_with_crop_or_pad/control_dependency"
  input: "^style_resizer/resize_image_with_crop_or_pad/crop_to_bounding_box/Assert/Assert"
  input: "^style_resizer/resize_image_with_crop_or_pad/crop_to_bounding_box/Assert_1/Assert"
  input: "^style_resizer/resize_image_with_crop_or_pad/crop_to_bounding_box/Assert_2/Assert"
  input: "^style_resizer/resize_image_with_crop_or_pad/crop_to_bounding_box/Assert_3/Assert"
  input: "^style_resizer/resize_image_with_crop_or_pad/crop_to_bounding_box/Assert_4/Assert"
  input: "^style_resizer/resize_image_with_crop_or_pad/crop_to_bounding_box/Assert_5/Assert"
  input: "^style_resizer/resize_image_with_crop_or_pad/crop_to_bounding_box/assert_positive/assert_less/Assert/Assert"
  attr {
    key: "T"
    value {
      type: DT_FLOAT
    }
  }
  attr {
    key: "_class"
    value {
      list {
        s: "loc:@style_resizer/resize_image_with_crop_or_pad/ExpandDims"
      }
    }
  }
}
node {
  name: "style_resizer/resize_image_with_crop_or_pad/crop_to_bounding_box/stack/0"
  op: "Const"
  attr {
    key: "dtype"
    value {
      type: DT_INT32
    }
  }
  attr {
    key: "value"
    value {
      tensor {
        dtype: DT_INT32
        tensor_shape {
        }
        int_val: 0
      }
    }
  }
}
node {
  name: "style_resizer/resize_image_with_crop_or_pad/crop_to_bounding_box/stack/3"
  op: "Const"
  attr {
    key: "dtype"
    value {
      type: DT_INT32
    }
  }
  attr {
    key: "value"
    value {
      tensor {
        dtype: DT_INT32
        tensor_shape {
        }
        int_val: 0
      }
    }
  }
}
node {
  name: "style_resizer/resize_image_with_crop_or_pad/crop_to_bounding_box/stack"
  op: "Pack"
  input: "style_resizer/resize_image_with_crop_or_pad/crop_to_bounding_box/stack/0"
  input: "style_resizer/resize_image_with_crop_or_pad/Maximum_2"
  input: "style_resizer/resize_image_with_crop_or_pad/Maximum"
  input: "style_resizer/resize_image_with_crop_or_pad/crop_to_bounding_box/stack/3"
  attr {
    key: "N"
    value {
      i: 4
    }
  }
  attr {
    key: "T"
    value {
      type: DT_INT32
    }
  }
  attr {
    key: "axis"
    value {
      i: 0
    }
  }
}
node {
  name: "style_resizer/resize_image_with_crop_or_pad/crop_to_bounding_box/stack_1/0"
  op: "Const"
  attr {
    key: "dtype"
    value {
      type: DT_INT32
    }
  }
  attr {
    key: "value"
    value {
      tensor {
        dtype: DT_INT32
        tensor_shape {
        }
        int_val: -1
      }
    }
  }
}
node {
  name: "style_resizer/resize_image_with_crop_or_pad/crop_to_bounding_box/stack_1/3"
  op: "Const"
  attr {
    key: "dtype"
    value {
      type: DT_INT32
    }
  }
  attr {
    key: "value"
    value {
      tensor {
        dtype: DT_INT32
        tensor_shape {
        }
        int_val: -1
      }
    }
  }
}
node {
  name: "style_resizer/resize_image_with_crop_or_pad/crop_to_bounding_box/stack_1"
  op: "Pack"
  input: "style_resizer/resize_image_with_crop_or_pad/crop_to_bounding_box/stack_1/0"
  input: "style_resizer/resize_image_with_crop_or_pad/Minimum"
  input: "style_resizer/resize_image_with_crop_or_pad/Minimum_1"
  input: "style_resizer/resize_image_with_crop_or_pad/crop_to_bounding_box/stack_1/3"
  attr {
    key: "N"
    value {
      i: 4
    }
  }
  attr {
    key: "T"
    value {
      type: DT_INT32
    }
  }
  attr {
    key: "axis"
    value {
      i: 0
    }
  }
}
node {
  name: "style_resizer/resize_image_with_crop_or_pad/crop_to_bounding_box/Slice"
  op: "Slice"
  input: "style_resizer/resize_image_with_crop_or_pad/crop_to_bounding_box/control_dependency"
  input: "style_resizer/resize_image_with_crop_or_pad/crop_to_bounding_box/stack"
  input: "style_resizer/resize_image_with_crop_or_pad/crop_to_bounding_box/stack_1"
  attr {
    key: "Index"
    value {
      type: DT_INT32
    }
  }
  attr {
    key: "T"
    value {
      type: DT_FLOAT
    }
  }
}
node {
  name: "style_resizer/resize_image_with_crop_or_pad/pad_to_bounding_box/Shape"
  op: "Shape"
  input: "style_resizer/resize_image_with_crop_or_pad/crop_to_bounding_box/Slice"
  attr {
    key: "T"
    value {
      type: DT_FLOAT
    }
  }
  attr {
    key: "out_type"
    value {
      type: DT_INT32
    }
  }
}
node {
  name: "style_resizer/resize_image_with_crop_or_pad/pad_to_bounding_box/assert_positive/Const"
  op: "Const"
  attr {
    key: "dtype"
    value {
      type: DT_INT32
    }
  }
  attr {
    key: "value"
    value {
      tensor {
        dtype: DT_INT32
        tensor_shape {
        }
        int_val: 0
      }
    }
  }
}
node {
  name: "style_resizer/resize_image_with_crop_or_pad/pad_to_bounding_box/assert_positive/assert_less/Less"
  op: "Less"
  input: "style_resizer/resize_image_with_crop_or_pad/pad_to_bounding_box/assert_positive/Const"
  input: "style_resizer/resize_image_with_crop_or_pad/pad_to_bounding_box/Shape"
  attr {
    key: "T"
    value {
      type: DT_INT32
    }
  }
}
node {
  name: "style_resizer/resize_image_with_crop_or_pad/pad_to_bounding_box/assert_positive/assert_less/Const"
  op: "Const"
  attr {
    key: "dtype"
    value {
      type: DT_INT32
    }
  }
  attr {
    key: "value"
    value {
      tensor {
        dtype: DT_INT32
        tensor_shape {
          dim {
            size: 1
          }
        }
        int_val: 0
      }
    }
  }
}
node {
  name: "style_resizer/resize_image_with_crop_or_pad/pad_to_bounding_box/assert_positive/assert_less/All"
  op: "All"
  input: "style_resizer/resize_image_with_crop_or_pad/pad_to_bounding_box/assert_positive/assert_less/Less"
  input: "style_resizer/resize_image_with_crop_or_pad/pad_to_bounding_box/assert_positive/assert_less/Const"
  attr {
    key: "Tidx"
    value {
      type: DT_INT32
    }
  }
  attr {
    key: "keep_dims"
    value {
      b: false
    }
  }
}
node {
  name: "style_resizer/resize_image_with_crop_or_pad/pad_to_bounding_box/assert_positive/assert_less/Assert/Const"
  op: "Const"
  attr {
    key: "dtype"
    value {
      type: DT_STRING
    }
  }
  attr {
    key: "value"
    value {
      tensor {
        dtype: DT_STRING
        tensor_shape {
        }
        string_val: "all dims of \'image.shape\' must be > 0."
      }
    }
  }
}
node {
  name: "style_resizer/resize_image_with_crop_or_pad/pad_to_bounding_box/assert_positive/assert_less/Assert/Assert/data_0"
  op: "Const"
  attr {
    key: "dtype"
    value {
      type: DT_STRING
    }
  }
  attr {
    key: "value"
    value {
      tensor {
        dtype: DT_STRING
        tensor_shape {
        }
        string_val: "all dims of \'image.shape\' must be > 0."
      }
    }
  }
}
node {
  name: "style_resizer/resize_image_with_crop_or_pad/pad_to_bounding_box/assert_positive/assert_less/Assert/Assert"
  op: "Assert"
  input: "style_resizer/resize_image_with_crop_or_pad/pad_to_bounding_box/assert_positive/assert_less/All"
  input: "style_resizer/resize_image_with_crop_or_pad/pad_to_bounding_box/assert_positive/assert_less/Assert/Assert/data_0"
  attr {
    key: "T"
    value {
      list {
        type: DT_STRING
      }
    }
  }
  attr {
    key: "summarize"
    value {
      i: 3
    }
  }
}
node {
  name: "style_resizer/resize_image_with_crop_or_pad/pad_to_bounding_box/Shape_1"
  op: "Shape"
  input: "style_resizer/resize_image_with_crop_or_pad/crop_to_bounding_box/Slice"
  attr {
    key: "T"
    value {
      type: DT_FLOAT
    }
  }
  attr {
    key: "out_type"
    value {
      type: DT_INT32
    }
  }
}
node {
  name: "style_resizer/resize_image_with_crop_or_pad/pad_to_bounding_box/unstack"
  op: "Unpack"
  input: "style_resizer/resize_image_with_crop_or_pad/pad_to_bounding_box/Shape_1"
  attr {
    key: "T"
    value {
      type: DT_INT32
    }
  }
  attr {
    key: "axis"
    value {
      i: 0
    }
  }
  attr {
    key: "num"
    value {
      i: 4
    }
  }
}
node {
  name: "style_resizer/resize_image_with_crop_or_pad/pad_to_bounding_box/sub/x"
  op: "Const"
  attr {
    key: "dtype"
    value {
      type: DT_INT32
    }
  }
  attr {
    key: "value"
    value {
      tensor {
        dtype: DT_INT32
        tensor_shape {
        }
        int_val: 300
      }
    }
  }
}
node {
  name: "style_resizer/resize_image_with_crop_or_pad/pad_to_bounding_box/sub"
  op: "Sub"
  input: "style_resizer/resize_image_with_crop_or_pad/pad_to_bounding_box/sub/x"
  input: "style_resizer/resize_image_with_crop_or_pad/Maximum_1"
  attr {
    key: "T"
    value {
      type: DT_INT32
    }
  }
}
node {
  name: "style_resizer/resize_image_with_crop_or_pad/pad_to_bounding_box/sub_1"
  op: "Sub"
  input: "style_resizer/resize_image_with_crop_or_pad/pad_to_bounding_box/sub"
  input: "style_resizer/resize_image_with_crop_or_pad/pad_to_bounding_box/unstack:2"
  attr {
    key: "T"
    value {
      type: DT_INT32
    }
  }
}
node {
  name: "style_resizer/resize_image_with_crop_or_pad/pad_to_bounding_box/sub_2/x"
  op: "Const"
  attr {
    key: "dtype"
    value {
      type: DT_INT32
    }
  }
  attr {
    key: "value"
    value {
      tensor {
        dtype: DT_INT32
        tensor_shape {
        }
        int_val: 300
      }
    }
  }
}
node {
  name: "style_resizer/resize_image_with_crop_or_pad/pad_to_bounding_box/sub_2"
  op: "Sub"
  input: "style_resizer/resize_image_with_crop_or_pad/pad_to_bounding_box/sub_2/x"
  input: "style_resizer/resize_image_with_crop_or_pad/Maximum_3"
  attr {
    key: "T"
    value {
      type: DT_INT32
    }
  }
}
node {
  name: "style_resizer/resize_image_with_crop_or_pad/pad_to_bounding_box/sub_3"
  op: "Sub"
  input: "style_resizer/resize_image_with_crop_or_pad/pad_to_bounding_box/sub_2"
  input: "style_resizer/resize_image_with_crop_or_pad/pad_to_bounding_box/unstack:1"
  attr {
    key: "T"
    value {
      type: DT_INT32
    }
  }
}
node {
  name: "style_resizer/resize_image_with_crop_or_pad/pad_to_bounding_box/GreaterEqual/y"
  op: "Const"
  attr {
    key: "dtype"
    value {
      type: DT_INT32
    }
  }
  attr {
    key: "value"
    value {
      tensor {
        dtype: DT_INT32
        tensor_shape {
        }
        int_val: 0
      }
    }
  }
}
node {
  name: "style_resizer/resize_image_with_crop_or_pad/pad_to_bounding_box/GreaterEqual"
  op: "GreaterEqual"
  input: "style_resizer/resize_image_with_crop_or_pad/Maximum_3"
  input: "style_resizer/resize_image_with_crop_or_pad/pad_to_bounding_box/GreaterEqual/y"
  attr {
    key: "T"
    value {
      type: DT_INT32
    }
  }
}
node {
  name: "style_resizer/resize_image_with_crop_or_pad/pad_to_bounding_box/Assert/Const"
  op: "Const"
  attr {
    key: "dtype"
    value {
      type: DT_STRING
    }
  }
  attr {
    key: "value"
    value {
      tensor {
        dtype: DT_STRING
        tensor_shape {
        }
        string_val: "offset_height must be >= 0"
      }
    }
  }
}
node {
  name: "style_resizer/resize_image_with_crop_or_pad/pad_to_bounding_box/Assert/Assert/data_0"
  op: "Const"
  attr {
    key: "dtype"
    value {
      type: DT_STRING
    }
  }
  attr {
    key: "value"
    value {
      tensor {
        dtype: DT_STRING
        tensor_shape {
        }
        string_val: "offset_height must be >= 0"
      }
    }
  }
}
node {
  name: "style_resizer/resize_image_with_crop_or_pad/pad_to_bounding_box/Assert/Assert"
  op: "Assert"
  input: "style_resizer/resize_image_with_crop_or_pad/pad_to_bounding_box/GreaterEqual"
  input: "style_resizer/resize_image_with_crop_or_pad/pad_to_bounding_box/Assert/Assert/data_0"
  attr {
    key: "T"
    value {
      list {
        type: DT_STRING
      }
    }
  }
  attr {
    key: "summarize"
    value {
      i: 3
    }
  }
}
node {
  name: "style_resizer/resize_image_with_crop_or_pad/pad_to_bounding_box/GreaterEqual_1/y"
  op: "Const"
  attr {
    key: "dtype"
    value {
      type: DT_INT32
    }
  }
  attr {
    key: "value"
    value {
      tensor {
        dtype: DT_INT32
        tensor_shape {
        }
        int_val: 0
      }
    }
  }
}
node {
  name: "style_resizer/resize_image_with_crop_or_pad/pad_to_bounding_box/GreaterEqual_1"
  op: "GreaterEqual"
  input: "style_resizer/resize_image_with_crop_or_pad/Maximum_1"
  input: "style_resizer/resize_image_with_crop_or_pad/pad_to_bounding_box/GreaterEqual_1/y"
  attr {
    key: "T"
    value {
      type: DT_INT32
    }
  }
}
node {
  name: "style_resizer/resize_image_with_crop_or_pad/pad_to_bounding_box/Assert_1/Const"
  op: "Const"
  attr {
    key: "dtype"
    value {
      type: DT_STRING
    }
  }
  attr {
    key: "value"
    value {
      tensor {
        dtype: DT_STRING
        tensor_shape {
        }
        string_val: "offset_width must be >= 0"
      }
    }
  }
}
node {
  name: "style_resizer/resize_image_with_crop_or_pad/pad_to_bounding_box/Assert_1/Assert/data_0"
  op: "Const"
  attr {
    key: "dtype"
    value {
      type: DT_STRING
    }
  }
  attr {
    key: "value"
    value {
      tensor {
        dtype: DT_STRING
        tensor_shape {
        }
        string_val: "offset_width must be >= 0"
      }
    }
  }
}
node {
  name: "style_resizer/resize_image_with_crop_or_pad/pad_to_bounding_box/Assert_1/Assert"
  op: "Assert"
  input: "style_resizer/resize_image_with_crop_or_pad/pad_to_bounding_box/GreaterEqual_1"
  input: "style_resizer/resize_image_with_crop_or_pad/pad_to_bounding_box/Assert_1/Assert/data_0"
  attr {
    key: "T"
    value {
      list {
        type: DT_STRING
      }
    }
  }
  attr {
    key: "summarize"
    value {
      i: 3
    }
  }
}
node {
  name: "style_resizer/resize_image_with_crop_or_pad/pad_to_bounding_box/GreaterEqual_2/y"
  op: "Const"
  attr {
    key: "dtype"
    value {
      type: DT_INT32
    }
  }
  attr {
    key: "value"
    value {
      tensor {
        dtype: DT_INT32
        tensor_shape {
        }
        int_val: 0
      }
    }
  }
}
node {
  name: "style_resizer/resize_image_with_crop_or_pad/pad_to_bounding_box/GreaterEqual_2"
  op: "GreaterEqual"
  input: "style_resizer/resize_image_with_crop_or_pad/pad_to_bounding_box/sub_1"
  input: "style_resizer/resize_image_with_crop_or_pad/pad_to_bounding_box/GreaterEqual_2/y"
  attr {
    key: "T"
    value {
      type: DT_INT32
    }
  }
}
node {
  name: "style_resizer/resize_image_with_crop_or_pad/pad_to_bounding_box/Assert_2/Const"
  op: "Const"
  attr {
    key: "dtype"
    value {
      type: DT_STRING
    }
  }
  attr {
    key: "value"
    value {
      tensor {
        dtype: DT_STRING
        tensor_shape {
        }
        string_val: "width must be <= target - offset"
      }
    }
  }
}
node {
  name: "style_resizer/resize_image_with_crop_or_pad/pad_to_bounding_box/Assert_2/Assert/data_0"
  op: "Const"
  attr {
    key: "dtype"
    value {
      type: DT_STRING
    }
  }
  attr {
    key: "value"
    value {
      tensor {
        dtype: DT_STRING
        tensor_shape {
        }
        string_val: "width must be <= target - offset"
      }
    }
  }
}
node {
  name: "style_resizer/resize_image_with_crop_or_pad/pad_to_bounding_box/Assert_2/Assert"
  op: "Assert"
  input: "style_resizer/resize_image_with_crop_or_pad/pad_to_bounding_box/GreaterEqual_2"
  input: "style_resizer/resize_image_with_crop_or_pad/pad_to_bounding_box/Assert_2/Assert/data_0"
  attr {
    key: "T"
    value {
      list {
        type: DT_STRING
      }
    }
  }
  attr {
    key: "summarize"
    value {
      i: 3
    }
  }
}
node {
  name: "style_resizer/resize_image_with_crop_or_pad/pad_to_bounding_box/GreaterEqual_3/y"
  op: "Const"
  attr {
    key: "dtype"
    value {
      type: DT_INT32
    }
  }
  attr {
    key: "value"
    value {
      tensor {
        dtype: DT_INT32
        tensor_shape {
        }
        int_val: 0
      }
    }
  }
}
node {
  name: "style_resizer/resize_image_with_crop_or_pad/pad_to_bounding_box/GreaterEqual_3"
  op: "GreaterEqual"
  input: "style_resizer/resize_image_with_crop_or_pad/pad_to_bounding_box/sub_3"
  input: "style_resizer/resize_image_with_crop_or_pad/pad_to_bounding_box/GreaterEqual_3/y"
  attr {
    key: "T"
    value {
      type: DT_INT32
    }
  }
}
node {
  name: "style_resizer/resize_image_with_crop_or_pad/pad_to_bounding_box/Assert_3/Const"
  op: "Const"
  attr {
    key: "dtype"
    value {
      type: DT_STRING
    }
  }
  attr {
    key: "value"
    value {
      tensor {
        dtype: DT_STRING
        tensor_shape {
        }
        string_val: "height must be <= target - offset"
      }
    }
  }
}
node {
  name: "style_resizer/resize_image_with_crop_or_pad/pad_to_bounding_box/Assert_3/Assert/data_0"
  op: "Const"
  attr {
    key: "dtype"
    value {
      type: DT_STRING
    }
  }
  attr {
    key: "value"
    value {
      tensor {
        dtype: DT_STRING
        tensor_shape {
        }
        string_val: "height must be <= target - offset"
      }
    }
  }
}
node {
  name: "style_resizer/resize_image_with_crop_or_pad/pad_to_bounding_box/Assert_3/Assert"
  op: "Assert"
  input: "style_resizer/resize_image_with_crop_or_pad/pad_to_bounding_box/GreaterEqual_3"
  input: "style_resizer/resize_image_with_crop_or_pad/pad_to_bounding_box/Assert_3/Assert/data_0"
  attr {
    key: "T"
    value {
      list {
        type: DT_STRING
      }
    }
  }
  attr {
    key: "summarize"
    value {
      i: 3
    }
  }
}
node {
  name: "style_resizer/resize_image_with_crop_or_pad/pad_to_bounding_box/control_dependency"
  op: "Identity"
  input: "style_resizer/resize_image_with_crop_or_pad/crop_to_bounding_box/Slice"
  input: "^style_resizer/resize_image_with_crop_or_pad/pad_to_bounding_box/Assert/Assert"
  input: "^style_resizer/resize_image_with_crop_or_pad/pad_to_bounding_box/Assert_1/Assert"
  input: "^style_resizer/resize_image_with_crop_or_pad/pad_to_bounding_box/Assert_2/Assert"
  input: "^style_resizer/resize_image_with_crop_or_pad/pad_to_bounding_box/Assert_3/Assert"
  input: "^style_resizer/resize_image_with_crop_or_pad/pad_to_bounding_box/assert_positive/assert_less/Assert/Assert"
  attr {
    key: "T"
    value {
      type: DT_FLOAT
    }
  }
  attr {
    key: "_class"
    value {
      list {
        s: "loc:@style_resizer/resize_image_with_crop_or_pad/crop_to_bounding_box/Slice"
      }
    }
  }
}
node {
  name: "style_resizer/resize_image_with_crop_or_pad/pad_to_bounding_box/stack/0"
  op: "Const"
  attr {
    key: "dtype"
    value {
      type: DT_INT32
    }
  }
  attr {
    key: "value"
    value {
      tensor {
        dtype: DT_INT32
        tensor_shape {
        }
        int_val: 0
      }
    }
  }
}
node {
  name: "style_resizer/resize_image_with_crop_or_pad/pad_to_bounding_box/stack/1"
  op: "Const"
  attr {
    key: "dtype"
    value {
      type: DT_INT32
    }
  }
  attr {
    key: "value"
    value {
      tensor {
        dtype: DT_INT32
        tensor_shape {
        }
        int_val: 0
      }
    }
  }
}
node {
  name: "style_resizer/resize_image_with_crop_or_pad/pad_to_bounding_box/stack/6"
  op: "Const"
  attr {
    key: "dtype"
    value {
      type: DT_INT32
    }
  }
  attr {
    key: "value"
    value {
      tensor {
        dtype: DT_INT32
        tensor_shape {
        }
        int_val: 0
      }
    }
  }
}
node {
  name: "style_resizer/resize_image_with_crop_or_pad/pad_to_bounding_box/stack/7"
  op: "Const"
  attr {
    key: "dtype"
    value {
      type: DT_INT32
    }
  }
  attr {
    key: "value"
    value {
      tensor {
        dtype: DT_INT32
        tensor_shape {
        }
        int_val: 0
      }
    }
  }
}
node {
  name: "style_resizer/resize_image_with_crop_or_pad/pad_to_bounding_box/stack"
  op: "Pack"
  input: "style_resizer/resize_image_with_crop_or_pad/pad_to_bounding_box/stack/0"
  input: "style_resizer/resize_image_with_crop_or_pad/pad_to_bounding_box/stack/1"
  input: "style_resizer/resize_image_with_crop_or_pad/Maximum_3"
  input: "style_resizer/resize_image_with_crop_or_pad/pad_to_bounding_box/sub_3"
  input: "style_resizer/resize_image_with_crop_or_pad/Maximum_1"
  input: "style_resizer/resize_image_with_crop_or_pad/pad_to_bounding_box/sub_1"
  input: "style_resizer/resize_image_with_crop_or_pad/pad_to_bounding_box/stack/6"
  input: "style_resizer/resize_image_with_crop_or_pad/pad_to_bounding_box/stack/7"
  attr {
    key: "N"
    value {
      i: 8
    }
  }
  attr {
    key: "T"
    value {
      type: DT_INT32
    }
  }
  attr {
    key: "axis"
    value {
      i: 0
    }
  }
}
node {
  name: "style_resizer/resize_image_with_crop_or_pad/pad_to_bounding_box/Reshape/shape"
  op: "Const"
  attr {
    key: "dtype"
    value {
      type: DT_INT32
    }
  }
  attr {
    key: "value"
    value {
      tensor {
        dtype: DT_INT32
        tensor_shape {
          dim {
            size: 2
          }
        }
        tensor_content: "\004\000\000\000\002\000\000\000"
      }
    }
  }
}
node {
  name: "style_resizer/resize_image_with_crop_or_pad/pad_to_bounding_box/Reshape"
  op: "Reshape"
  input: "style_resizer/resize_image_with_crop_or_pad/pad_to_bounding_box/stack"
  input: "style_resizer/resize_image_with_crop_or_pad/pad_to_bounding_box/Reshape/shape"
  attr {
    key: "T"
    value {
      type: DT_INT32
    }
  }
  attr {
    key: "Tshape"
    value {
      type: DT_INT32
    }
  }
}
node {
  name: "style_resizer/resize_image_with_crop_or_pad/pad_to_bounding_box/Pad"
  op: "Pad"
  input: "style_resizer/resize_image_with_crop_or_pad/pad_to_bounding_box/control_dependency"
  input: "style_resizer/resize_image_with_crop_or_pad/pad_to_bounding_box/Reshape"
  attr {
    key: "T"
    value {
      type: DT_FLOAT
    }
  }
  attr {
    key: "Tpaddings"
    value {
      type: DT_INT32
    }
  }
}
node {
  name: "style_resizer/resize_image_with_crop_or_pad/control_dependency_1"
  op: "Identity"
  input: "style_resizer/resize_image_with_crop_or_pad/pad_to_bounding_box/Pad"
  attr {
    key: "T"
    value {
      type: DT_FLOAT
    }
  }
  attr {
    key: "_class"
    value {
      list {
        s: "loc:@style_resizer/resize_image_with_crop_or_pad/pad_to_bounding_box/Pad"
      }
    }
  }
}
node {
  name: "style_resizer/resize_image_with_crop_or_pad/Squeeze"
  op: "Squeeze"
  input: "style_resizer/resize_image_with_crop_or_pad/control_dependency_1"
  attr {
    key: "T"
    value {
      type: DT_FLOAT
    }
  }
  attr {
    key: "squeeze_dims"
    value {
      list {
        i: 0
      }
    }
  }
}
node {
  name: "gen_img/Initializer/random_uniform/shape"
  op: "Const"
  attr {
    key: "_class"
    value {
      list {
        s: "loc:@gen_img"
      }
    }
  }
  attr {
    key: "dtype"
    value {
      type: DT_INT32
    }
  }
  attr {
    key: "value"
    value {
      tensor {
        dtype: DT_INT32
        tensor_shape {
          dim {
            size: 3
          }
        }
        tensor_content: ",\001\000\000,\001\000\000\003\000\000\000"
      }
    }
  }
}
node {
  name: "gen_img/Initializer/random_uniform/min"
  op: "Const"
  attr {
    key: "_class"
    value {
      list {
        s: "loc:@gen_img"
      }
    }
  }
  attr {
    key: "dtype"
    value {
      type: DT_FLOAT
    }
  }
  attr {
    key: "value"
    value {
      tensor {
        dtype: DT_FLOAT
        tensor_shape {
        }
        float_val: -0.008124444633722305
      }
    }
  }
}
node {
  name: "gen_img/Initializer/random_uniform/max"
  op: "Const"
  attr {
    key: "_class"
    value {
      list {
        s: "loc:@gen_img"
      }
    }
  }
  attr {
    key: "dtype"
    value {
      type: DT_FLOAT
    }
  }
  attr {
    key: "value"
    value {
      tensor {
        dtype: DT_FLOAT
        tensor_shape {
        }
        float_val: 0.008124444633722305
      }
    }
  }
}
node {
  name: "gen_img/Initializer/random_uniform/RandomUniform"
  op: "RandomUniform"
  input: "gen_img/Initializer/random_uniform/shape"
  attr {
    key: "T"
    value {
      type: DT_INT32
    }
  }
  attr {
    key: "_class"
    value {
      list {
        s: "loc:@gen_img"
      }
    }
  }
  attr {
    key: "dtype"
    value {
      type: DT_FLOAT
    }
  }
  attr {
    key: "seed"
    value {
      i: 0
    }
  }
  attr {
    key: "seed2"
    value {
      i: 0
    }
  }
}
node {
  name: "gen_img/Initializer/random_uniform/sub"
  op: "Sub"
  input: "gen_img/Initializer/random_uniform/max"
  input: "gen_img/Initializer/random_uniform/min"
  attr {
    key: "T"
    value {
      type: DT_FLOAT
    }
  }
  attr {
    key: "_class"
    value {
      list {
        s: "loc:@gen_img"
      }
    }
  }
}
node {
  name: "gen_img/Initializer/random_uniform/mul"
  op: "Mul"
  input: "gen_img/Initializer/random_uniform/RandomUniform"
  input: "gen_img/Initializer/random_uniform/sub"
  attr {
    key: "T"
    value {
      type: DT_FLOAT
    }
  }
  attr {
    key: "_class"
    value {
      list {
        s: "loc:@gen_img"
      }
    }
  }
}
node {
  name: "gen_img/Initializer/random_uniform"
  op: "Add"
  input: "gen_img/Initializer/random_uniform/mul"
  input: "gen_img/Initializer/random_uniform/min"
  attr {
    key: "T"
    value {
      type: DT_FLOAT
    }
  }
  attr {
    key: "_class"
    value {
      list {
        s: "loc:@gen_img"
      }
    }
  }
}
node {
  name: "gen_img"
  op: "VariableV2"
  attr {
    key: "_class"
    value {
      list {
        s: "loc:@gen_img"
      }
    }
  }
  attr {
    key: "container"
    value {
      s: ""
    }
  }
  attr {
    key: "dtype"
    value {
      type: DT_FLOAT
    }
  }
  attr {
    key: "shape"
    value {
      shape {
        dim {
          size: 300
        }
        dim {
          size: 300
        }
        dim {
          size: 3
        }
      }
    }
  }
  attr {
    key: "shared_name"
    value {
      s: ""
    }
  }
}
node {
  name: "gen_img/Assign"
  op: "Assign"
  input: "gen_img"
  input: "gen_img/Initializer/random_uniform"
  attr {
    key: "T"
    value {
      type: DT_FLOAT
    }
  }
  attr {
    key: "_class"
    value {
      list {
        s: "loc:@gen_img"
      }
    }
  }
  attr {
    key: "use_locking"
    value {
      b: true
    }
  }
  attr {
    key: "validate_shape"
    value {
      b: true
    }
  }
}
node {
  name: "gen_img/read"
  op: "Identity"
  input: "gen_img"
  attr {
    key: "T"
    value {
      type: DT_FLOAT
    }
  }
  attr {
    key: "_class"
    value {
      list {
        s: "loc:@gen_img"
      }
    }
  }
}
node {
  name: "vgg19/Placeholder"
  op: "Placeholder"
  attr {
    key: "dtype"
    value {
      type: DT_FLOAT
    }
  }
  attr {
    key: "shape"
    value {
      shape {
        dim {
          size: 300
        }
        dim {
          size: 300
        }
        dim {
          size: 3
        }
      }
    }
  }
}
node {
  name: "vgg19/preprocess/sub/y"
  op: "Const"
  attr {
    key: "dtype"
    value {
      type: DT_FLOAT
    }
  }
  attr {
    key: "value"
    value {
      tensor {
        dtype: DT_FLOAT
        tensor_shape {
          dim {
            size: 1
          }
          dim {
            size: 1
          }
          dim {
            size: 1
          }
          dim {
            size: 3
          }
        }
        tensor_content: ")\\\367B\331\216\351B\305\340\317B"
      }
    }
  }
}
node {
  name: "vgg19/preprocess/sub"
  op: "Sub"
  input: "vgg19/Placeholder"
  input: "vgg19/preprocess/sub/y"
  attr {
    key: "T"
    value {
      type: DT_FLOAT
    }
  }
}
node {
  name: "vgg19/preprocess/ReverseV2/axis"
  op: "Const"
  attr {
    key: "dtype"
    value {
      type: DT_INT32
    }
  }
  attr {
    key: "value"
    value {
      tensor {
        dtype: DT_INT32
        tensor_shape {
          dim {
            size: 1
          }
        }
        int_val: -1
      }
    }
  }
}
node {
  name: "vgg19/preprocess/ReverseV2"
  op: "ReverseV2"
  input: "vgg19/preprocess/sub"
  input: "vgg19/preprocess/ReverseV2/axis"
  attr {
    key: "T"
    value {
      type: DT_FLOAT
    }
  }
  attr {
    key: "Tidx"
    value {
      type: DT_INT32
    }
  }
}
node {
  name: "vgg19/preprocess/Squeeze"
  op: "Squeeze"
  input: "vgg19/preprocess/ReverseV2"
  attr {
    key: "T"
    value {
      type: DT_FLOAT
    }
  }
  attr {
    key: "squeeze_dims"
    value {
      list {
      }
    }
  }
}
node {
  name: "vgg19/preprocess/sub_1/y"
  op: "Const"
  attr {
    key: "dtype"
    value {
      type: DT_FLOAT
    }
  }
  attr {
    key: "value"
    value {
      tensor {
        dtype: DT_FLOAT
        tensor_shape {
          dim {
            size: 1
          }
          dim {
            size: 1
          }
          dim {
            size: 1
          }
          dim {
            size: 3
          }
        }
        tensor_content: ")\\\367B\331\216\351B\305\340\317B"
      }
    }
  }
}
node {
  name: "vgg19/preprocess/sub_1"
  op: "Sub"
  input: "gen_img/read"
  input: "vgg19/preprocess/sub_1/y"
  attr {
    key: "T"
    value {
      type: DT_FLOAT
    }
  }
}
node {
  name: "vgg19/preprocess/ReverseV2_1/axis"
  op: "Const"
  attr {
    key: "dtype"
    value {
      type: DT_INT32
    }
  }
  attr {
    key: "value"
    value {
      tensor {
        dtype: DT_INT32
        tensor_shape {
          dim {
            size: 1
          }
        }
        int_val: -1
      }
    }
  }
}
node {
  name: "vgg19/preprocess/ReverseV2_1"
  op: "ReverseV2"
  input: "vgg19/preprocess/sub_1"
  input: "vgg19/preprocess/ReverseV2_1/axis"
  attr {
    key: "T"
    value {
      type: DT_FLOAT
    }
  }
  attr {
    key: "Tidx"
    value {
      type: DT_INT32
    }
  }
}
node {
  name: "vgg19/preprocess/Squeeze_1"
  op: "Squeeze"
  input: "vgg19/preprocess/ReverseV2_1"
  attr {
    key: "T"
    value {
      type: DT_FLOAT
    }
  }
  attr {
    key: "squeeze_dims"
    value {
      list {
      }
    }
  }
}
node {
  name: "vgg19/preprocess/sub_2/y"
  op: "Const"
  attr {
    key: "dtype"
    value {
      type: DT_FLOAT
    }
  }
  attr {
    key: "value"
    value {
      tensor {
        dtype: DT_FLOAT
        tensor_shape {
          dim {
            size: 1
          }
          dim {
            size: 1
          }
          dim {
            size: 1
          }
          dim {
            size: 3
          }
        }
        tensor_content: ")\\\367B\331\216\351B\305\340\317B"
      }
    }
  }
}
node {
  name: "vgg19/preprocess/sub_2"
  op: "Sub"
  input: "style_resizer/resize_image_with_crop_or_pad/Squeeze"
  input: "vgg19/preprocess/sub_2/y"
  attr {
    key: "T"
    value {
      type: DT_FLOAT
    }
  }
}
node {
  name: "vgg19/preprocess/ReverseV2_2/axis"
  op: "Const"
  attr {
    key: "dtype"
    value {
      type: DT_INT32
    }
  }
  attr {
    key: "value"
    value {
      tensor {
        dtype: DT_INT32
        tensor_shape {
          dim {
            size: 1
          }
        }
        int_val: -1
      }
    }
  }
}
node {
  name: "vgg19/preprocess/ReverseV2_2"
  op: "ReverseV2"
  input: "vgg19/preprocess/sub_2"
  input: "vgg19/preprocess/ReverseV2_2/axis"
  attr {
    key: "T"
    value {
      type: DT_FLOAT
    }
  }
  attr {
    key: "Tidx"
    value {
      type: DT_INT32
    }
  }
}
node {
  name: "vgg19/preprocess/Squeeze_2"
  op: "Squeeze"
  input: "vgg19/preprocess/ReverseV2_2"
  attr {
    key: "T"
    value {
      type: DT_FLOAT
    }
  }
  attr {
    key: "squeeze_dims"
    value {
      list {
      }
    }
  }
}
node {
  name: "vgg19/stacker/stack"
  op: "Pack"
  input: "vgg19/preprocess/Squeeze"
  input: "vgg19/preprocess/Squeeze_1"
  input: "vgg19/preprocess/Squeeze_2"
  attr {
    key: "N"
    value {
      i: 3
    }
  }
  attr {
    key: "T"
    value {
      type: DT_FLOAT
    }
  }
  attr {
    key: "axis"
    value {
      i: 0
    }
  }
}
node {
  name: "vgg19/vgg_model/block1_conv1/kernel/Initializer/random_uniform/shape"
  op: "Const"
  attr {
    key: "_class"
    value {
      list {
        s: "loc:@vgg19/vgg_model/block1_conv1/kernel"
      }
    }
  }
  attr {
    key: "dtype"
    value {
      type: DT_INT32
    }
  }
  attr {
    key: "value"
    value {
      tensor {
        dtype: DT_INT32
        tensor_shape {
          dim {
            size: 4
          }
        }
        tensor_content: "\003\000\000\000\003\000\000\000\003\000\000\000@\000\000\000"
      }
    }
  }
}
node {
  name: "vgg19/vgg_model/block1_conv1/kernel/Initializer/random_uniform/min"
  op: "Const"
  attr {
    key: "_class"
    value {
      list {
        s: "loc:@vgg19/vgg_model/block1_conv1/kernel"
      }
    }
  }
  attr {
    key: "dtype"
    value {
      type: DT_FLOAT
    }
  }
  attr {
    key: "value"
    value {
      tensor {
        dtype: DT_FLOAT
        tensor_shape {
        }
        float_val: -0.09975093603134155
      }
    }
  }
}
node {
  name: "vgg19/vgg_model/block1_conv1/kernel/Initializer/random_uniform/max"
  op: "Const"
  attr {
    key: "_class"
    value {
      list {
        s: "loc:@vgg19/vgg_model/block1_conv1/kernel"
      }
    }
  }
  attr {
    key: "dtype"
    value {
      type: DT_FLOAT
    }
  }
  attr {
    key: "value"
    value {
      tensor {
        dtype: DT_FLOAT
        tensor_shape {
        }
        float_val: 0.09975093603134155
      }
    }
  }
}
node {
  name: "vgg19/vgg_model/block1_conv1/kernel/Initializer/random_uniform/RandomUniform"
  op: "RandomUniform"
  input: "vgg19/vgg_model/block1_conv1/kernel/Initializer/random_uniform/shape"
  attr {
    key: "T"
    value {
      type: DT_INT32
    }
  }
  attr {
    key: "_class"
    value {
      list {
        s: "loc:@vgg19/vgg_model/block1_conv1/kernel"
      }
    }
  }
  attr {
    key: "dtype"
    value {
      type: DT_FLOAT
    }
  }
  attr {
    key: "seed"
    value {
      i: 0
    }
  }
  attr {
    key: "seed2"
    value {
      i: 0
    }
  }
}
node {
  name: "vgg19/vgg_model/block1_conv1/kernel/Initializer/random_uniform/sub"
  op: "Sub"
  input: "vgg19/vgg_model/block1_conv1/kernel/Initializer/random_uniform/max"
  input: "vgg19/vgg_model/block1_conv1/kernel/Initializer/random_uniform/min"
  attr {
    key: "T"
    value {
      type: DT_FLOAT
    }
  }
  attr {
    key: "_class"
    value {
      list {
        s: "loc:@vgg19/vgg_model/block1_conv1/kernel"
      }
    }
  }
}
node {
  name: "vgg19/vgg_model/block1_conv1/kernel/Initializer/random_uniform/mul"
  op: "Mul"
  input: "vgg19/vgg_model/block1_conv1/kernel/Initializer/random_uniform/RandomUniform"
  input: "vgg19/vgg_model/block1_conv1/kernel/Initializer/random_uniform/sub"
  attr {
    key: "T"
    value {
      type: DT_FLOAT
    }
  }
  attr {
    key: "_class"
    value {
      list {
        s: "loc:@vgg19/vgg_model/block1_conv1/kernel"
      }
    }
  }
}
node {
  name: "vgg19/vgg_model/block1_conv1/kernel/Initializer/random_uniform"
  op: "Add"
  input: "vgg19/vgg_model/block1_conv1/kernel/Initializer/random_uniform/mul"
  input: "vgg19/vgg_model/block1_conv1/kernel/Initializer/random_uniform/min"
  attr {
    key: "T"
    value {
      type: DT_FLOAT
    }
  }
  attr {
    key: "_class"
    value {
      list {
        s: "loc:@vgg19/vgg_model/block1_conv1/kernel"
      }
    }
  }
}
node {
  name: "vgg19/vgg_model/block1_conv1/kernel"
  op: "VarHandleOp"
  attr {
    key: "_class"
    value {
      list {
        s: "loc:@vgg19/vgg_model/block1_conv1/kernel"
      }
    }
  }
  attr {
    key: "container"
    value {
      s: ""
    }
  }
  attr {
    key: "dtype"
    value {
      type: DT_FLOAT
    }
  }
  attr {
    key: "shape"
    value {
      shape {
        dim {
          size: 3
        }
        dim {
          size: 3
        }
        dim {
          size: 3
        }
        dim {
          size: 64
        }
      }
    }
  }
  attr {
    key: "shared_name"
    value {
      s: "vgg19/vgg_model/block1_conv1/kernel"
    }
  }
}
node {
  name: "vgg19/vgg_model/block1_conv1/kernel/IsInitialized/VarIsInitializedOp"
  op: "VarIsInitializedOp"
  input: "vgg19/vgg_model/block1_conv1/kernel"
}
node {
  name: "vgg19/vgg_model/block1_conv1/kernel/Assign"
  op: "AssignVariableOp"
  input: "vgg19/vgg_model/block1_conv1/kernel"
  input: "vgg19/vgg_model/block1_conv1/kernel/Initializer/random_uniform"
  attr {
    key: "_class"
    value {
      list {
        s: "loc:@vgg19/vgg_model/block1_conv1/kernel"
      }
    }
  }
  attr {
    key: "dtype"
    value {
      type: DT_FLOAT
    }
  }
}
node {
  name: "vgg19/vgg_model/block1_conv1/kernel/Read/ReadVariableOp"
  op: "ReadVariableOp"
  input: "vgg19/vgg_model/block1_conv1/kernel"
  attr {
    key: "_class"
    value {
      list {
        s: "loc:@vgg19/vgg_model/block1_conv1/kernel"
      }
    }
  }
  attr {
    key: "dtype"
    value {
      type: DT_FLOAT
    }
  }
}
node {
  name: "vgg19/vgg_model/block1_conv1/bias/Initializer/zeros"
  op: "Const"
  attr {
    key: "_class"
    value {
      list {
        s: "loc:@vgg19/vgg_model/block1_conv1/bias"
      }
    }
  }
  attr {
    key: "dtype"
    value {
      type: DT_FLOAT
    }
  }
  attr {
    key: "value"
    value {
      tensor {
        dtype: DT_FLOAT
        tensor_shape {
          dim {
            size: 64
          }
        }
        float_val: 0.0
      }
    }
  }
}
node {
  name: "vgg19/vgg_model/block1_conv1/bias"
  op: "VarHandleOp"
  attr {
    key: "_class"
    value {
      list {
        s: "loc:@vgg19/vgg_model/block1_conv1/bias"
      }
    }
  }
  attr {
    key: "container"
    value {
      s: ""
    }
  }
  attr {
    key: "dtype"
    value {
      type: DT_FLOAT
    }
  }
  attr {
    key: "shape"
    value {
      shape {
        dim {
          size: 64
        }
      }
    }
  }
  attr {
    key: "shared_name"
    value {
      s: "vgg19/vgg_model/block1_conv1/bias"
    }
  }
}
node {
  name: "vgg19/vgg_model/block1_conv1/bias/IsInitialized/VarIsInitializedOp"
  op: "VarIsInitializedOp"
  input: "vgg19/vgg_model/block1_conv1/bias"
}
node {
  name: "vgg19/vgg_model/block1_conv1/bias/Assign"
  op: "AssignVariableOp"
  input: "vgg19/vgg_model/block1_conv1/bias"
  input: "vgg19/vgg_model/block1_conv1/bias/Initializer/zeros"
  attr {
    key: "_class"
    value {
      list {
        s: "loc:@vgg19/vgg_model/block1_conv1/bias"
      }
    }
  }
  attr {
    key: "dtype"
    value {
      type: DT_FLOAT
    }
  }
}
node {
  name: "vgg19/vgg_model/block1_conv1/bias/Read/ReadVariableOp"
  op: "ReadVariableOp"
  input: "vgg19/vgg_model/block1_conv1/bias"
  attr {
    key: "_class"
    value {
      list {
        s: "loc:@vgg19/vgg_model/block1_conv1/bias"
      }
    }
  }
  attr {
    key: "dtype"
    value {
      type: DT_FLOAT
    }
  }
}
node {
  name: "vgg19/vgg_model/block1_conv1/dilation_rate"
  op: "Const"
  attr {
    key: "dtype"
    value {
      type: DT_INT32
    }
  }
  attr {
    key: "value"
    value {
      tensor {
        dtype: DT_INT32
        tensor_shape {
          dim {
            size: 2
          }
        }
        tensor_content: "\001\000\000\000\001\000\000\000"
      }
    }
  }
}
node {
  name: "vgg19/vgg_model/block1_conv1/Conv2D/ReadVariableOp"
  op: "ReadVariableOp"
  input: "vgg19/vgg_model/block1_conv1/kernel"
  attr {
    key: "dtype"
    value {
      type: DT_FLOAT
    }
  }
}
node {
  name: "vgg19/vgg_model/block1_conv1/Conv2D"
  op: "Conv2D"
  input: "vgg19/stacker/stack"
  input: "vgg19/vgg_model/block1_conv1/Conv2D/ReadVariableOp"
  attr {
    key: "T"
    value {
      type: DT_FLOAT
    }
  }
  attr {
    key: "data_format"
    value {
      s: "NHWC"
    }
  }
  attr {
    key: "dilations"
    value {
      list {
        i: 1
        i: 1
        i: 1
        i: 1
      }
    }
  }
  attr {
    key: "padding"
    value {
      s: "SAME"
    }
  }
  attr {
    key: "strides"
    value {
      list {
        i: 1
        i: 1
        i: 1
        i: 1
      }
    }
  }
  attr {
    key: "use_cudnn_on_gpu"
    value {
      b: true
    }
  }
}
node {
  name: "vgg19/vgg_model/block1_conv1/BiasAdd/ReadVariableOp"
  op: "ReadVariableOp"
  input: "vgg19/vgg_model/block1_conv1/bias"
  attr {
    key: "dtype"
    value {
      type: DT_FLOAT
    }
  }
}
node {
  name: "vgg19/vgg_model/block1_conv1/BiasAdd"
  op: "BiasAdd"
  input: "vgg19/vgg_model/block1_conv1/Conv2D"
  input: "vgg19/vgg_model/block1_conv1/BiasAdd/ReadVariableOp"
  attr {
    key: "T"
    value {
      type: DT_FLOAT
    }
  }
  attr {
    key: "data_format"
    value {
      s: "NHWC"
    }
  }
}
node {
  name: "vgg19/vgg_model/block1_conv1/Relu"
  op: "Relu"
  input: "vgg19/vgg_model/block1_conv1/BiasAdd"
  attr {
    key: "T"
    value {
      type: DT_FLOAT
    }
  }
}
node {
  name: "vgg19/vgg_model/block1_conv2/kernel/Initializer/random_uniform/shape"
  op: "Const"
  attr {
    key: "_class"
    value {
      list {
        s: "loc:@vgg19/vgg_model/block1_conv2/kernel"
      }
    }
  }
  attr {
    key: "dtype"
    value {
      type: DT_INT32
    }
  }
  attr {
    key: "value"
    value {
      tensor {
        dtype: DT_INT32
        tensor_shape {
          dim {
            size: 4
          }
        }
        tensor_content: "\003\000\000\000\003\000\000\000@\000\000\000@\000\000\000"
      }
    }
  }
}
node {
  name: "vgg19/vgg_model/block1_conv2/kernel/Initializer/random_uniform/min"
  op: "Const"
  attr {
    key: "_class"
    value {
      list {
        s: "loc:@vgg19/vgg_model/block1_conv2/kernel"
      }
    }
  }
  attr {
    key: "dtype"
    value {
      type: DT_FLOAT
    }
  }
  attr {
    key: "value"
    value {
      tensor {
        dtype: DT_FLOAT
        tensor_shape {
        }
        float_val: -0.07216878235340118
      }
    }
  }
}
node {
  name: "vgg19/vgg_model/block1_conv2/kernel/Initializer/random_uniform/max"
  op: "Const"
  attr {
    key: "_class"
    value {
      list {
        s: "loc:@vgg19/vgg_model/block1_conv2/kernel"
      }
    }
  }
  attr {
    key: "dtype"
    value {
      type: DT_FLOAT
    }
  }
  attr {
    key: "value"
    value {
      tensor {
        dtype: DT_FLOAT
        tensor_shape {
        }
        float_val: 0.07216878235340118
      }
    }
  }
}
node {
  name: "vgg19/vgg_model/block1_conv2/kernel/Initializer/random_uniform/RandomUniform"
  op: "RandomUniform"
  input: "vgg19/vgg_model/block1_conv2/kernel/Initializer/random_uniform/shape"
  attr {
    key: "T"
    value {
      type: DT_INT32
    }
  }
  attr {
    key: "_class"
    value {
      list {
        s: "loc:@vgg19/vgg_model/block1_conv2/kernel"
      }
    }
  }
  attr {
    key: "dtype"
    value {
      type: DT_FLOAT
    }
  }
  attr {
    key: "seed"
    value {
      i: 0
    }
  }
  attr {
    key: "seed2"
    value {
      i: 0
    }
  }
}
node {
  name: "vgg19/vgg_model/block1_conv2/kernel/Initializer/random_uniform/sub"
  op: "Sub"
  input: "vgg19/vgg_model/block1_conv2/kernel/Initializer/random_uniform/max"
  input: "vgg19/vgg_model/block1_conv2/kernel/Initializer/random_uniform/min"
  attr {
    key: "T"
    value {
      type: DT_FLOAT
    }
  }
  attr {
    key: "_class"
    value {
      list {
        s: "loc:@vgg19/vgg_model/block1_conv2/kernel"
      }
    }
  }
}
node {
  name: "vgg19/vgg_model/block1_conv2/kernel/Initializer/random_uniform/mul"
  op: "Mul"
  input: "vgg19/vgg_model/block1_conv2/kernel/Initializer/random_uniform/RandomUniform"
  input: "vgg19/vgg_model/block1_conv2/kernel/Initializer/random_uniform/sub"
  attr {
    key: "T"
    value {
      type: DT_FLOAT
    }
  }
  attr {
    key: "_class"
    value {
      list {
        s: "loc:@vgg19/vgg_model/block1_conv2/kernel"
      }
    }
  }
}
node {
  name: "vgg19/vgg_model/block1_conv2/kernel/Initializer/random_uniform"
  op: "Add"
  input: "vgg19/vgg_model/block1_conv2/kernel/Initializer/random_uniform/mul"
  input: "vgg19/vgg_model/block1_conv2/kernel/Initializer/random_uniform/min"
  attr {
    key: "T"
    value {
      type: DT_FLOAT
    }
  }
  attr {
    key: "_class"
    value {
      list {
        s: "loc:@vgg19/vgg_model/block1_conv2/kernel"
      }
    }
  }
}
node {
  name: "vgg19/vgg_model/block1_conv2/kernel"
  op: "VarHandleOp"
  attr {
    key: "_class"
    value {
      list {
        s: "loc:@vgg19/vgg_model/block1_conv2/kernel"
      }
    }
  }
  attr {
    key: "container"
    value {
      s: ""
    }
  }
  attr {
    key: "dtype"
    value {
      type: DT_FLOAT
    }
  }
  attr {
    key: "shape"
    value {
      shape {
        dim {
          size: 3
        }
        dim {
          size: 3
        }
        dim {
          size: 64
        }
        dim {
          size: 64
        }
      }
    }
  }
  attr {
    key: "shared_name"
    value {
      s: "vgg19/vgg_model/block1_conv2/kernel"
    }
  }
}
node {
  name: "vgg19/vgg_model/block1_conv2/kernel/IsInitialized/VarIsInitializedOp"
  op: "VarIsInitializedOp"
  input: "vgg19/vgg_model/block1_conv2/kernel"
}
node {
  name: "vgg19/vgg_model/block1_conv2/kernel/Assign"
  op: "AssignVariableOp"
  input: "vgg19/vgg_model/block1_conv2/kernel"
  input: "vgg19/vgg_model/block1_conv2/kernel/Initializer/random_uniform"
  attr {
    key: "_class"
    value {
      list {
        s: "loc:@vgg19/vgg_model/block1_conv2/kernel"
      }
    }
  }
  attr {
    key: "dtype"
    value {
      type: DT_FLOAT
    }
  }
}
node {
  name: "vgg19/vgg_model/block1_conv2/kernel/Read/ReadVariableOp"
  op: "ReadVariableOp"
  input: "vgg19/vgg_model/block1_conv2/kernel"
  attr {
    key: "_class"
    value {
      list {
        s: "loc:@vgg19/vgg_model/block1_conv2/kernel"
      }
    }
  }
  attr {
    key: "dtype"
    value {
      type: DT_FLOAT
    }
  }
}
node {
  name: "vgg19/vgg_model/block1_conv2/bias/Initializer/zeros"
  op: "Const"
  attr {
    key: "_class"
    value {
      list {
        s: "loc:@vgg19/vgg_model/block1_conv2/bias"
      }
    }
  }
  attr {
    key: "dtype"
    value {
      type: DT_FLOAT
    }
  }
  attr {
    key: "value"
    value {
      tensor {
        dtype: DT_FLOAT
        tensor_shape {
          dim {
            size: 64
          }
        }
        float_val: 0.0
      }
    }
  }
}
node {
  name: "vgg19/vgg_model/block1_conv2/bias"
  op: "VarHandleOp"
  attr {
    key: "_class"
    value {
      list {
        s: "loc:@vgg19/vgg_model/block1_conv2/bias"
      }
    }
  }
  attr {
    key: "container"
    value {
      s: ""
    }
  }
  attr {
    key: "dtype"
    value {
      type: DT_FLOAT
    }
  }
  attr {
    key: "shape"
    value {
      shape {
        dim {
          size: 64
        }
      }
    }
  }
  attr {
    key: "shared_name"
    value {
      s: "vgg19/vgg_model/block1_conv2/bias"
    }
  }
}
node {
  name: "vgg19/vgg_model/block1_conv2/bias/IsInitialized/VarIsInitializedOp"
  op: "VarIsInitializedOp"
  input: "vgg19/vgg_model/block1_conv2/bias"
}
node {
  name: "vgg19/vgg_model/block1_conv2/bias/Assign"
  op: "AssignVariableOp"
  input: "vgg19/vgg_model/block1_conv2/bias"
  input: "vgg19/vgg_model/block1_conv2/bias/Initializer/zeros"
  attr {
    key: "_class"
    value {
      list {
        s: "loc:@vgg19/vgg_model/block1_conv2/bias"
      }
    }
  }
  attr {
    key: "dtype"
    value {
      type: DT_FLOAT
    }
  }
}
node {
  name: "vgg19/vgg_model/block1_conv2/bias/Read/ReadVariableOp"
  op: "ReadVariableOp"
  input: "vgg19/vgg_model/block1_conv2/bias"
  attr {
    key: "_class"
    value {
      list {
        s: "loc:@vgg19/vgg_model/block1_conv2/bias"
      }
    }
  }
  attr {
    key: "dtype"
    value {
      type: DT_FLOAT
    }
  }
}
node {
  name: "vgg19/vgg_model/block1_conv2/dilation_rate"
  op: "Const"
  attr {
    key: "dtype"
    value {
      type: DT_INT32
    }
  }
  attr {
    key: "value"
    value {
      tensor {
        dtype: DT_INT32
        tensor_shape {
          dim {
            size: 2
          }
        }
        tensor_content: "\001\000\000\000\001\000\000\000"
      }
    }
  }
}
node {
  name: "vgg19/vgg_model/block1_conv2/Conv2D/ReadVariableOp"
  op: "ReadVariableOp"
  input: "vgg19/vgg_model/block1_conv2/kernel"
  attr {
    key: "dtype"
    value {
      type: DT_FLOAT
    }
  }
}
node {
  name: "vgg19/vgg_model/block1_conv2/Conv2D"
  op: "Conv2D"
  input: "vgg19/vgg_model/block1_conv1/Relu"
  input: "vgg19/vgg_model/block1_conv2/Conv2D/ReadVariableOp"
  attr {
    key: "T"
    value {
      type: DT_FLOAT
    }
  }
  attr {
    key: "data_format"
    value {
      s: "NHWC"
    }
  }
  attr {
    key: "dilations"
    value {
      list {
        i: 1
        i: 1
        i: 1
        i: 1
      }
    }
  }
  attr {
    key: "padding"
    value {
      s: "SAME"
    }
  }
  attr {
    key: "strides"
    value {
      list {
        i: 1
        i: 1
        i: 1
        i: 1
      }
    }
  }
  attr {
    key: "use_cudnn_on_gpu"
    value {
      b: true
    }
  }
}
node {
  name: "vgg19/vgg_model/block1_conv2/BiasAdd/ReadVariableOp"
  op: "ReadVariableOp"
  input: "vgg19/vgg_model/block1_conv2/bias"
  attr {
    key: "dtype"
    value {
      type: DT_FLOAT
    }
  }
}
node {
  name: "vgg19/vgg_model/block1_conv2/BiasAdd"
  op: "BiasAdd"
  input: "vgg19/vgg_model/block1_conv2/Conv2D"
  input: "vgg19/vgg_model/block1_conv2/BiasAdd/ReadVariableOp"
  attr {
    key: "T"
    value {
      type: DT_FLOAT
    }
  }
  attr {
    key: "data_format"
    value {
      s: "NHWC"
    }
  }
}
node {
  name: "vgg19/vgg_model/block1_conv2/Relu"
  op: "Relu"
  input: "vgg19/vgg_model/block1_conv2/BiasAdd"
  attr {
    key: "T"
    value {
      type: DT_FLOAT
    }
  }
}
node {
  name: "vgg19/vgg_model/block1_pool/MaxPool"
  op: "MaxPool"
  input: "vgg19/vgg_model/block1_conv2/Relu"
  attr {
    key: "T"
    value {
      type: DT_FLOAT
    }
  }
  attr {
    key: "data_format"
    value {
      s: "NHWC"
    }
  }
  attr {
    key: "ksize"
    value {
      list {
        i: 1
        i: 2
        i: 2
        i: 1
      }
    }
  }
  attr {
    key: "padding"
    value {
      s: "VALID"
    }
  }
  attr {
    key: "strides"
    value {
      list {
        i: 1
        i: 2
        i: 2
        i: 1
      }
    }
  }
}
node {
  name: "vgg19/vgg_model/block2_conv1/kernel/Initializer/random_uniform/shape"
  op: "Const"
  attr {
    key: "_class"
    value {
      list {
        s: "loc:@vgg19/vgg_model/block2_conv1/kernel"
      }
    }
  }
  attr {
    key: "dtype"
    value {
      type: DT_INT32
    }
  }
  attr {
    key: "value"
    value {
      tensor {
        dtype: DT_INT32
        tensor_shape {
          dim {
            size: 4
          }
        }
        tensor_content: "\003\000\000\000\003\000\000\000@\000\000\000\200\000\000\000"
      }
    }
  }
}
node {
  name: "vgg19/vgg_model/block2_conv1/kernel/Initializer/random_uniform/min"
  op: "Const"
  attr {
    key: "_class"
    value {
      list {
        s: "loc:@vgg19/vgg_model/block2_conv1/kernel"
      }
    }
  }
  attr {
    key: "dtype"
    value {
      type: DT_FLOAT
    }
  }
  attr {
    key: "value"
    value {
      tensor {
        dtype: DT_FLOAT
        tensor_shape {
        }
        float_val: -0.0589255653321743
      }
    }
  }
}
node {
  name: "vgg19/vgg_model/block2_conv1/kernel/Initializer/random_uniform/max"
  op: "Const"
  attr {
    key: "_class"
    value {
      list {
        s: "loc:@vgg19/vgg_model/block2_conv1/kernel"
      }
    }
  }
  attr {
    key: "dtype"
    value {
      type: DT_FLOAT
    }
  }
  attr {
    key: "value"
    value {
      tensor {
        dtype: DT_FLOAT
        tensor_shape {
        }
        float_val: 0.0589255653321743
      }
    }
  }
}
node {
  name: "vgg19/vgg_model/block2_conv1/kernel/Initializer/random_uniform/RandomUniform"
  op: "RandomUniform"
  input: "vgg19/vgg_model/block2_conv1/kernel/Initializer/random_uniform/shape"
  attr {
    key: "T"
    value {
      type: DT_INT32
    }
  }
  attr {
    key: "_class"
    value {
      list {
        s: "loc:@vgg19/vgg_model/block2_conv1/kernel"
      }
    }
  }
  attr {
    key: "dtype"
    value {
      type: DT_FLOAT
    }
  }
  attr {
    key: "seed"
    value {
      i: 0
    }
  }
  attr {
    key: "seed2"
    value {
      i: 0
    }
  }
}
node {
  name: "vgg19/vgg_model/block2_conv1/kernel/Initializer/random_uniform/sub"
  op: "Sub"
  input: "vgg19/vgg_model/block2_conv1/kernel/Initializer/random_uniform/max"
  input: "vgg19/vgg_model/block2_conv1/kernel/Initializer/random_uniform/min"
  attr {
    key: "T"
    value {
      type: DT_FLOAT
    }
  }
  attr {
    key: "_class"
    value {
      list {
        s: "loc:@vgg19/vgg_model/block2_conv1/kernel"
      }
    }
  }
}
node {
  name: "vgg19/vgg_model/block2_conv1/kernel/Initializer/random_uniform/mul"
  op: "Mul"
  input: "vgg19/vgg_model/block2_conv1/kernel/Initializer/random_uniform/RandomUniform"
  input: "vgg19/vgg_model/block2_conv1/kernel/Initializer/random_uniform/sub"
  attr {
    key: "T"
    value {
      type: DT_FLOAT
    }
  }
  attr {
    key: "_class"
    value {
      list {
        s: "loc:@vgg19/vgg_model/block2_conv1/kernel"
      }
    }
  }
}
node {
  name: "vgg19/vgg_model/block2_conv1/kernel/Initializer/random_uniform"
  op: "Add"
  input: "vgg19/vgg_model/block2_conv1/kernel/Initializer/random_uniform/mul"
  input: "vgg19/vgg_model/block2_conv1/kernel/Initializer/random_uniform/min"
  attr {
    key: "T"
    value {
      type: DT_FLOAT
    }
  }
  attr {
    key: "_class"
    value {
      list {
        s: "loc:@vgg19/vgg_model/block2_conv1/kernel"
      }
    }
  }
}
node {
  name: "vgg19/vgg_model/block2_conv1/kernel"
  op: "VarHandleOp"
  attr {
    key: "_class"
    value {
      list {
        s: "loc:@vgg19/vgg_model/block2_conv1/kernel"
      }
    }
  }
  attr {
    key: "container"
    value {
      s: ""
    }
  }
  attr {
    key: "dtype"
    value {
      type: DT_FLOAT
    }
  }
  attr {
    key: "shape"
    value {
      shape {
        dim {
          size: 3
        }
        dim {
          size: 3
        }
        dim {
          size: 64
        }
        dim {
          size: 128
        }
      }
    }
  }
  attr {
    key: "shared_name"
    value {
      s: "vgg19/vgg_model/block2_conv1/kernel"
    }
  }
}
node {
  name: "vgg19/vgg_model/block2_conv1/kernel/IsInitialized/VarIsInitializedOp"
  op: "VarIsInitializedOp"
  input: "vgg19/vgg_model/block2_conv1/kernel"
}
node {
  name: "vgg19/vgg_model/block2_conv1/kernel/Assign"
  op: "AssignVariableOp"
  input: "vgg19/vgg_model/block2_conv1/kernel"
  input: "vgg19/vgg_model/block2_conv1/kernel/Initializer/random_uniform"
  attr {
    key: "_class"
    value {
      list {
        s: "loc:@vgg19/vgg_model/block2_conv1/kernel"
      }
    }
  }
  attr {
    key: "dtype"
    value {
      type: DT_FLOAT
    }
  }
}
node {
  name: "vgg19/vgg_model/block2_conv1/kernel/Read/ReadVariableOp"
  op: "ReadVariableOp"
  input: "vgg19/vgg_model/block2_conv1/kernel"
  attr {
    key: "_class"
    value {
      list {
        s: "loc:@vgg19/vgg_model/block2_conv1/kernel"
      }
    }
  }
  attr {
    key: "dtype"
    value {
      type: DT_FLOAT
    }
  }
}
node {
  name: "vgg19/vgg_model/block2_conv1/bias/Initializer/zeros"
  op: "Const"
  attr {
    key: "_class"
    value {
      list {
        s: "loc:@vgg19/vgg_model/block2_conv1/bias"
      }
    }
  }
  attr {
    key: "dtype"
    value {
      type: DT_FLOAT
    }
  }
  attr {
    key: "value"
    value {
      tensor {
        dtype: DT_FLOAT
        tensor_shape {
          dim {
            size: 128
          }
        }
        float_val: 0.0
      }
    }
  }
}
node {
  name: "vgg19/vgg_model/block2_conv1/bias"
  op: "VarHandleOp"
  attr {
    key: "_class"
    value {
      list {
        s: "loc:@vgg19/vgg_model/block2_conv1/bias"
      }
    }
  }
  attr {
    key: "container"
    value {
      s: ""
    }
  }
  attr {
    key: "dtype"
    value {
      type: DT_FLOAT
    }
  }
  attr {
    key: "shape"
    value {
      shape {
        dim {
          size: 128
        }
      }
    }
  }
  attr {
    key: "shared_name"
    value {
      s: "vgg19/vgg_model/block2_conv1/bias"
    }
  }
}
node {
  name: "vgg19/vgg_model/block2_conv1/bias/IsInitialized/VarIsInitializedOp"
  op: "VarIsInitializedOp"
  input: "vgg19/vgg_model/block2_conv1/bias"
}
node {
  name: "vgg19/vgg_model/block2_conv1/bias/Assign"
  op: "AssignVariableOp"
  input: "vgg19/vgg_model/block2_conv1/bias"
  input: "vgg19/vgg_model/block2_conv1/bias/Initializer/zeros"
  attr {
    key: "_class"
    value {
      list {
        s: "loc:@vgg19/vgg_model/block2_conv1/bias"
      }
    }
  }
  attr {
    key: "dtype"
    value {
      type: DT_FLOAT
    }
  }
}
node {
  name: "vgg19/vgg_model/block2_conv1/bias/Read/ReadVariableOp"
  op: "ReadVariableOp"
  input: "vgg19/vgg_model/block2_conv1/bias"
  attr {
    key: "_class"
    value {
      list {
        s: "loc:@vgg19/vgg_model/block2_conv1/bias"
      }
    }
  }
  attr {
    key: "dtype"
    value {
      type: DT_FLOAT
    }
  }
}
node {
  name: "vgg19/vgg_model/block2_conv1/dilation_rate"
  op: "Const"
  attr {
    key: "dtype"
    value {
      type: DT_INT32
    }
  }
  attr {
    key: "value"
    value {
      tensor {
        dtype: DT_INT32
        tensor_shape {
          dim {
            size: 2
          }
        }
        tensor_content: "\001\000\000\000\001\000\000\000"
      }
    }
  }
}
node {
  name: "vgg19/vgg_model/block2_conv1/Conv2D/ReadVariableOp"
  op: "ReadVariableOp"
  input: "vgg19/vgg_model/block2_conv1/kernel"
  attr {
    key: "dtype"
    value {
      type: DT_FLOAT
    }
  }
}
node {
  name: "vgg19/vgg_model/block2_conv1/Conv2D"
  op: "Conv2D"
  input: "vgg19/vgg_model/block1_pool/MaxPool"
  input: "vgg19/vgg_model/block2_conv1/Conv2D/ReadVariableOp"
  attr {
    key: "T"
    value {
      type: DT_FLOAT
    }
  }
  attr {
    key: "data_format"
    value {
      s: "NHWC"
    }
  }
  attr {
    key: "dilations"
    value {
      list {
        i: 1
        i: 1
        i: 1
        i: 1
      }
    }
  }
  attr {
    key: "padding"
    value {
      s: "SAME"
    }
  }
  attr {
    key: "strides"
    value {
      list {
        i: 1
        i: 1
        i: 1
        i: 1
      }
    }
  }
  attr {
    key: "use_cudnn_on_gpu"
    value {
      b: true
    }
  }
}
node {
  name: "vgg19/vgg_model/block2_conv1/BiasAdd/ReadVariableOp"
  op: "ReadVariableOp"
  input: "vgg19/vgg_model/block2_conv1/bias"
  attr {
    key: "dtype"
    value {
      type: DT_FLOAT
    }
  }
}
node {
  name: "vgg19/vgg_model/block2_conv1/BiasAdd"
  op: "BiasAdd"
  input: "vgg19/vgg_model/block2_conv1/Conv2D"
  input: "vgg19/vgg_model/block2_conv1/BiasAdd/ReadVariableOp"
  attr {
    key: "T"
    value {
      type: DT_FLOAT
    }
  }
  attr {
    key: "data_format"
    value {
      s: "NHWC"
    }
  }
}
node {
  name: "vgg19/vgg_model/block2_conv1/Relu"
  op: "Relu"
  input: "vgg19/vgg_model/block2_conv1/BiasAdd"
  attr {
    key: "T"
    value {
      type: DT_FLOAT
    }
  }
}
node {
  name: "vgg19/vgg_model/block2_conv2/kernel/Initializer/random_uniform/shape"
  op: "Const"
  attr {
    key: "_class"
    value {
      list {
        s: "loc:@vgg19/vgg_model/block2_conv2/kernel"
      }
    }
  }
  attr {
    key: "dtype"
    value {
      type: DT_INT32
    }
  }
  attr {
    key: "value"
    value {
      tensor {
        dtype: DT_INT32
        tensor_shape {
          dim {
            size: 4
          }
        }
        tensor_content: "\003\000\000\000\003\000\000\000\200\000\000\000\200\000\000\000"
      }
    }
  }
}
node {
  name: "vgg19/vgg_model/block2_conv2/kernel/Initializer/random_uniform/min"
  op: "Const"
  attr {
    key: "_class"
    value {
      list {
        s: "loc:@vgg19/vgg_model/block2_conv2/kernel"
      }
    }
  }
  attr {
    key: "dtype"
    value {
      type: DT_FLOAT
    }
  }
  attr {
    key: "value"
    value {
      tensor {
        dtype: DT_FLOAT
        tensor_shape {
        }
        float_val: -0.05103103816509247
      }
    }
  }
}
node {
  name: "vgg19/vgg_model/block2_conv2/kernel/Initializer/random_uniform/max"
  op: "Const"
  attr {
    key: "_class"
    value {
      list {
        s: "loc:@vgg19/vgg_model/block2_conv2/kernel"
      }
    }
  }
  attr {
    key: "dtype"
    value {
      type: DT_FLOAT
    }
  }
  attr {
    key: "value"
    value {
      tensor {
        dtype: DT_FLOAT
        tensor_shape {
        }
        float_val: 0.05103103816509247
      }
    }
  }
}
node {
  name: "vgg19/vgg_model/block2_conv2/kernel/Initializer/random_uniform/RandomUniform"
  op: "RandomUniform"
  input: "vgg19/vgg_model/block2_conv2/kernel/Initializer/random_uniform/shape"
  attr {
    key: "T"
    value {
      type: DT_INT32
    }
  }
  attr {
    key: "_class"
    value {
      list {
        s: "loc:@vgg19/vgg_model/block2_conv2/kernel"
      }
    }
  }
  attr {
    key: "dtype"
    value {
      type: DT_FLOAT
    }
  }
  attr {
    key: "seed"
    value {
      i: 0
    }
  }
  attr {
    key: "seed2"
    value {
      i: 0
    }
  }
}
node {
  name: "vgg19/vgg_model/block2_conv2/kernel/Initializer/random_uniform/sub"
  op: "Sub"
  input: "vgg19/vgg_model/block2_conv2/kernel/Initializer/random_uniform/max"
  input: "vgg19/vgg_model/block2_conv2/kernel/Initializer/random_uniform/min"
  attr {
    key: "T"
    value {
      type: DT_FLOAT
    }
  }
  attr {
    key: "_class"
    value {
      list {
        s: "loc:@vgg19/vgg_model/block2_conv2/kernel"
      }
    }
  }
}
node {
  name: "vgg19/vgg_model/block2_conv2/kernel/Initializer/random_uniform/mul"
  op: "Mul"
  input: "vgg19/vgg_model/block2_conv2/kernel/Initializer/random_uniform/RandomUniform"
  input: "vgg19/vgg_model/block2_conv2/kernel/Initializer/random_uniform/sub"
  attr {
    key: "T"
    value {
      type: DT_FLOAT
    }
  }
  attr {
    key: "_class"
    value {
      list {
        s: "loc:@vgg19/vgg_model/block2_conv2/kernel"
      }
    }
  }
}
node {
  name: "vgg19/vgg_model/block2_conv2/kernel/Initializer/random_uniform"
  op: "Add"
  input: "vgg19/vgg_model/block2_conv2/kernel/Initializer/random_uniform/mul"
  input: "vgg19/vgg_model/block2_conv2/kernel/Initializer/random_uniform/min"
  attr {
    key: "T"
    value {
      type: DT_FLOAT
    }
  }
  attr {
    key: "_class"
    value {
      list {
        s: "loc:@vgg19/vgg_model/block2_conv2/kernel"
      }
    }
  }
}
node {
  name: "vgg19/vgg_model/block2_conv2/kernel"
  op: "VarHandleOp"
  attr {
    key: "_class"
    value {
      list {
        s: "loc:@vgg19/vgg_model/block2_conv2/kernel"
      }
    }
  }
  attr {
    key: "container"
    value {
      s: ""
    }
  }
  attr {
    key: "dtype"
    value {
      type: DT_FLOAT
    }
  }
  attr {
    key: "shape"
    value {
      shape {
        dim {
          size: 3
        }
        dim {
          size: 3
        }
        dim {
          size: 128
        }
        dim {
          size: 128
        }
      }
    }
  }
  attr {
    key: "shared_name"
    value {
      s: "vgg19/vgg_model/block2_conv2/kernel"
    }
  }
}
node {
  name: "vgg19/vgg_model/block2_conv2/kernel/IsInitialized/VarIsInitializedOp"
  op: "VarIsInitializedOp"
  input: "vgg19/vgg_model/block2_conv2/kernel"
}
node {
  name: "vgg19/vgg_model/block2_conv2/kernel/Assign"
  op: "AssignVariableOp"
  input: "vgg19/vgg_model/block2_conv2/kernel"
  input: "vgg19/vgg_model/block2_conv2/kernel/Initializer/random_uniform"
  attr {
    key: "_class"
    value {
      list {
        s: "loc:@vgg19/vgg_model/block2_conv2/kernel"
      }
    }
  }
  attr {
    key: "dtype"
    value {
      type: DT_FLOAT
    }
  }
}
node {
  name: "vgg19/vgg_model/block2_conv2/kernel/Read/ReadVariableOp"
  op: "ReadVariableOp"
  input: "vgg19/vgg_model/block2_conv2/kernel"
  attr {
    key: "_class"
    value {
      list {
        s: "loc:@vgg19/vgg_model/block2_conv2/kernel"
      }
    }
  }
  attr {
    key: "dtype"
    value {
      type: DT_FLOAT
    }
  }
}
node {
  name: "vgg19/vgg_model/block2_conv2/bias/Initializer/zeros"
  op: "Const"
  attr {
    key: "_class"
    value {
      list {
        s: "loc:@vgg19/vgg_model/block2_conv2/bias"
      }
    }
  }
  attr {
    key: "dtype"
    value {
      type: DT_FLOAT
    }
  }
  attr {
    key: "value"
    value {
      tensor {
        dtype: DT_FLOAT
        tensor_shape {
          dim {
            size: 128
          }
        }
        float_val: 0.0
      }
    }
  }
}
node {
  name: "vgg19/vgg_model/block2_conv2/bias"
  op: "VarHandleOp"
  attr {
    key: "_class"
    value {
      list {
        s: "loc:@vgg19/vgg_model/block2_conv2/bias"
      }
    }
  }
  attr {
    key: "container"
    value {
      s: ""
    }
  }
  attr {
    key: "dtype"
    value {
      type: DT_FLOAT
    }
  }
  attr {
    key: "shape"
    value {
      shape {
        dim {
          size: 128
        }
      }
    }
  }
  attr {
    key: "shared_name"
    value {
      s: "vgg19/vgg_model/block2_conv2/bias"
    }
  }
}
node {
  name: "vgg19/vgg_model/block2_conv2/bias/IsInitialized/VarIsInitializedOp"
  op: "VarIsInitializedOp"
  input: "vgg19/vgg_model/block2_conv2/bias"
}
node {
  name: "vgg19/vgg_model/block2_conv2/bias/Assign"
  op: "AssignVariableOp"
  input: "vgg19/vgg_model/block2_conv2/bias"
  input: "vgg19/vgg_model/block2_conv2/bias/Initializer/zeros"
  attr {
    key: "_class"
    value {
      list {
        s: "loc:@vgg19/vgg_model/block2_conv2/bias"
      }
    }
  }
  attr {
    key: "dtype"
    value {
      type: DT_FLOAT
    }
  }
}
node {
  name: "vgg19/vgg_model/block2_conv2/bias/Read/ReadVariableOp"
  op: "ReadVariableOp"
  input: "vgg19/vgg_model/block2_conv2/bias"
  attr {
    key: "_class"
    value {
      list {
        s: "loc:@vgg19/vgg_model/block2_conv2/bias"
      }
    }
  }
  attr {
    key: "dtype"
    value {
      type: DT_FLOAT
    }
  }
}
node {
  name: "vgg19/vgg_model/block2_conv2/dilation_rate"
  op: "Const"
  attr {
    key: "dtype"
    value {
      type: DT_INT32
    }
  }
  attr {
    key: "value"
    value {
      tensor {
        dtype: DT_INT32
        tensor_shape {
          dim {
            size: 2
          }
        }
        tensor_content: "\001\000\000\000\001\000\000\000"
      }
    }
  }
}
node {
  name: "vgg19/vgg_model/block2_conv2/Conv2D/ReadVariableOp"
  op: "ReadVariableOp"
  input: "vgg19/vgg_model/block2_conv2/kernel"
  attr {
    key: "dtype"
    value {
      type: DT_FLOAT
    }
  }
}
node {
  name: "vgg19/vgg_model/block2_conv2/Conv2D"
  op: "Conv2D"
  input: "vgg19/vgg_model/block2_conv1/Relu"
  input: "vgg19/vgg_model/block2_conv2/Conv2D/ReadVariableOp"
  attr {
    key: "T"
    value {
      type: DT_FLOAT
    }
  }
  attr {
    key: "data_format"
    value {
      s: "NHWC"
    }
  }
  attr {
    key: "dilations"
    value {
      list {
        i: 1
        i: 1
        i: 1
        i: 1
      }
    }
  }
  attr {
    key: "padding"
    value {
      s: "SAME"
    }
  }
  attr {
    key: "strides"
    value {
      list {
        i: 1
        i: 1
        i: 1
        i: 1
      }
    }
  }
  attr {
    key: "use_cudnn_on_gpu"
    value {
      b: true
    }
  }
}
node {
  name: "vgg19/vgg_model/block2_conv2/BiasAdd/ReadVariableOp"
  op: "ReadVariableOp"
  input: "vgg19/vgg_model/block2_conv2/bias"
  attr {
    key: "dtype"
    value {
      type: DT_FLOAT
    }
  }
}
node {
  name: "vgg19/vgg_model/block2_conv2/BiasAdd"
  op: "BiasAdd"
  input: "vgg19/vgg_model/block2_conv2/Conv2D"
  input: "vgg19/vgg_model/block2_conv2/BiasAdd/ReadVariableOp"
  attr {
    key: "T"
    value {
      type: DT_FLOAT
    }
  }
  attr {
    key: "data_format"
    value {
      s: "NHWC"
    }
  }
}
node {
  name: "vgg19/vgg_model/block2_conv2/Relu"
  op: "Relu"
  input: "vgg19/vgg_model/block2_conv2/BiasAdd"
  attr {
    key: "T"
    value {
      type: DT_FLOAT
    }
  }
}
node {
  name: "vgg19/vgg_model/block2_pool/MaxPool"
  op: "MaxPool"
  input: "vgg19/vgg_model/block2_conv2/Relu"
  attr {
    key: "T"
    value {
      type: DT_FLOAT
    }
  }
  attr {
    key: "data_format"
    value {
      s: "NHWC"
    }
  }
  attr {
    key: "ksize"
    value {
      list {
        i: 1
        i: 2
        i: 2
        i: 1
      }
    }
  }
  attr {
    key: "padding"
    value {
      s: "VALID"
    }
  }
  attr {
    key: "strides"
    value {
      list {
        i: 1
        i: 2
        i: 2
        i: 1
      }
    }
  }
}
node {
  name: "vgg19/vgg_model/block3_conv1/kernel/Initializer/random_uniform/shape"
  op: "Const"
  attr {
    key: "_class"
    value {
      list {
        s: "loc:@vgg19/vgg_model/block3_conv1/kernel"
      }
    }
  }
  attr {
    key: "dtype"
    value {
      type: DT_INT32
    }
  }
  attr {
    key: "value"
    value {
      tensor {
        dtype: DT_INT32
        tensor_shape {
          dim {
            size: 4
          }
        }
        tensor_content: "\003\000\000\000\003\000\000\000\200\000\000\000\000\001\000\000"
      }
    }
  }
}
node {
  name: "vgg19/vgg_model/block3_conv1/kernel/Initializer/random_uniform/min"
  op: "Const"
  attr {
    key: "_class"
    value {
      list {
        s: "loc:@vgg19/vgg_model/block3_conv1/kernel"
      }
    }
  }
  attr {
    key: "dtype"
    value {
      type: DT_FLOAT
    }
  }
  attr {
    key: "value"
    value {
      tensor {
        dtype: DT_FLOAT
        tensor_shape {
        }
        float_val: -0.0416666679084301
      }
    }
  }
}
node {
  name: "vgg19/vgg_model/block3_conv1/kernel/Initializer/random_uniform/max"
  op: "Const"
  attr {
    key: "_class"
    value {
      list {
        s: "loc:@vgg19/vgg_model/block3_conv1/kernel"
      }
    }
  }
  attr {
    key: "dtype"
    value {
      type: DT_FLOAT
    }
  }
  attr {
    key: "value"
    value {
      tensor {
        dtype: DT_FLOAT
        tensor_shape {
        }
        float_val: 0.0416666679084301
      }
    }
  }
}
node {
  name: "vgg19/vgg_model/block3_conv1/kernel/Initializer/random_uniform/RandomUniform"
  op: "RandomUniform"
  input: "vgg19/vgg_model/block3_conv1/kernel/Initializer/random_uniform/shape"
  attr {
    key: "T"
    value {
      type: DT_INT32
    }
  }
  attr {
    key: "_class"
    value {
      list {
        s: "loc:@vgg19/vgg_model/block3_conv1/kernel"
      }
    }
  }
  attr {
    key: "dtype"
    value {
      type: DT_FLOAT
    }
  }
  attr {
    key: "seed"
    value {
      i: 0
    }
  }
  attr {
    key: "seed2"
    value {
      i: 0
    }
  }
}
node {
  name: "vgg19/vgg_model/block3_conv1/kernel/Initializer/random_uniform/sub"
  op: "Sub"
  input: "vgg19/vgg_model/block3_conv1/kernel/Initializer/random_uniform/max"
  input: "vgg19/vgg_model/block3_conv1/kernel/Initializer/random_uniform/min"
  attr {
    key: "T"
    value {
      type: DT_FLOAT
    }
  }
  attr {
    key: "_class"
    value {
      list {
        s: "loc:@vgg19/vgg_model/block3_conv1/kernel"
      }
    }
  }
}
node {
  name: "vgg19/vgg_model/block3_conv1/kernel/Initializer/random_uniform/mul"
  op: "Mul"
  input: "vgg19/vgg_model/block3_conv1/kernel/Initializer/random_uniform/RandomUniform"
  input: "vgg19/vgg_model/block3_conv1/kernel/Initializer/random_uniform/sub"
  attr {
    key: "T"
    value {
      type: DT_FLOAT
    }
  }
  attr {
    key: "_class"
    value {
      list {
        s: "loc:@vgg19/vgg_model/block3_conv1/kernel"
      }
    }
  }
}
node {
  name: "vgg19/vgg_model/block3_conv1/kernel/Initializer/random_uniform"
  op: "Add"
  input: "vgg19/vgg_model/block3_conv1/kernel/Initializer/random_uniform/mul"
  input: "vgg19/vgg_model/block3_conv1/kernel/Initializer/random_uniform/min"
  attr {
    key: "T"
    value {
      type: DT_FLOAT
    }
  }
  attr {
    key: "_class"
    value {
      list {
        s: "loc:@vgg19/vgg_model/block3_conv1/kernel"
      }
    }
  }
}
node {
  name: "vgg19/vgg_model/block3_conv1/kernel"
  op: "VarHandleOp"
  attr {
    key: "_class"
    value {
      list {
        s: "loc:@vgg19/vgg_model/block3_conv1/kernel"
      }
    }
  }
  attr {
    key: "container"
    value {
      s: ""
    }
  }
  attr {
    key: "dtype"
    value {
      type: DT_FLOAT
    }
  }
  attr {
    key: "shape"
    value {
      shape {
        dim {
          size: 3
        }
        dim {
          size: 3
        }
        dim {
          size: 128
        }
        dim {
          size: 256
        }
      }
    }
  }
  attr {
    key: "shared_name"
    value {
      s: "vgg19/vgg_model/block3_conv1/kernel"
    }
  }
}
node {
  name: "vgg19/vgg_model/block3_conv1/kernel/IsInitialized/VarIsInitializedOp"
  op: "VarIsInitializedOp"
  input: "vgg19/vgg_model/block3_conv1/kernel"
}
node {
  name: "vgg19/vgg_model/block3_conv1/kernel/Assign"
  op: "AssignVariableOp"
  input: "vgg19/vgg_model/block3_conv1/kernel"
  input: "vgg19/vgg_model/block3_conv1/kernel/Initializer/random_uniform"
  attr {
    key: "_class"
    value {
      list {
        s: "loc:@vgg19/vgg_model/block3_conv1/kernel"
      }
    }
  }
  attr {
    key: "dtype"
    value {
      type: DT_FLOAT
    }
  }
}
node {
  name: "vgg19/vgg_model/block3_conv1/kernel/Read/ReadVariableOp"
  op: "ReadVariableOp"
  input: "vgg19/vgg_model/block3_conv1/kernel"
  attr {
    key: "_class"
    value {
      list {
        s: "loc:@vgg19/vgg_model/block3_conv1/kernel"
      }
    }
  }
  attr {
    key: "dtype"
    value {
      type: DT_FLOAT
    }
  }
}
node {
  name: "vgg19/vgg_model/block3_conv1/bias/Initializer/zeros"
  op: "Const"
  attr {
    key: "_class"
    value {
      list {
        s: "loc:@vgg19/vgg_model/block3_conv1/bias"
      }
    }
  }
  attr {
    key: "dtype"
    value {
      type: DT_FLOAT
    }
  }
  attr {
    key: "value"
    value {
      tensor {
        dtype: DT_FLOAT
        tensor_shape {
          dim {
            size: 256
          }
        }
        float_val: 0.0
      }
    }
  }
}
node {
  name: "vgg19/vgg_model/block3_conv1/bias"
  op: "VarHandleOp"
  attr {
    key: "_class"
    value {
      list {
        s: "loc:@vgg19/vgg_model/block3_conv1/bias"
      }
    }
  }
  attr {
    key: "container"
    value {
      s: ""
    }
  }
  attr {
    key: "dtype"
    value {
      type: DT_FLOAT
    }
  }
  attr {
    key: "shape"
    value {
      shape {
        dim {
          size: 256
        }
      }
    }
  }
  attr {
    key: "shared_name"
    value {
      s: "vgg19/vgg_model/block3_conv1/bias"
    }
  }
}
node {
  name: "vgg19/vgg_model/block3_conv1/bias/IsInitialized/VarIsInitializedOp"
  op: "VarIsInitializedOp"
  input: "vgg19/vgg_model/block3_conv1/bias"
}
node {
  name: "vgg19/vgg_model/block3_conv1/bias/Assign"
  op: "AssignVariableOp"
  input: "vgg19/vgg_model/block3_conv1/bias"
  input: "vgg19/vgg_model/block3_conv1/bias/Initializer/zeros"
  attr {
    key: "_class"
    value {
      list {
        s: "loc:@vgg19/vgg_model/block3_conv1/bias"
      }
    }
  }
  attr {
    key: "dtype"
    value {
      type: DT_FLOAT
    }
  }
}
node {
  name: "vgg19/vgg_model/block3_conv1/bias/Read/ReadVariableOp"
  op: "ReadVariableOp"
  input: "vgg19/vgg_model/block3_conv1/bias"
  attr {
    key: "_class"
    value {
      list {
        s: "loc:@vgg19/vgg_model/block3_conv1/bias"
      }
    }
  }
  attr {
    key: "dtype"
    value {
      type: DT_FLOAT
    }
  }
}
node {
  name: "vgg19/vgg_model/block3_conv1/dilation_rate"
  op: "Const"
  attr {
    key: "dtype"
    value {
      type: DT_INT32
    }
  }
  attr {
    key: "value"
    value {
      tensor {
        dtype: DT_INT32
        tensor_shape {
          dim {
            size: 2
          }
        }
        tensor_content: "\001\000\000\000\001\000\000\000"
      }
    }
  }
}
node {
  name: "vgg19/vgg_model/block3_conv1/Conv2D/ReadVariableOp"
  op: "ReadVariableOp"
  input: "vgg19/vgg_model/block3_conv1/kernel"
  attr {
    key: "dtype"
    value {
      type: DT_FLOAT
    }
  }
}
node {
  name: "vgg19/vgg_model/block3_conv1/Conv2D"
  op: "Conv2D"
  input: "vgg19/vgg_model/block2_pool/MaxPool"
  input: "vgg19/vgg_model/block3_conv1/Conv2D/ReadVariableOp"
  attr {
    key: "T"
    value {
      type: DT_FLOAT
    }
  }
  attr {
    key: "data_format"
    value {
      s: "NHWC"
    }
  }
  attr {
    key: "dilations"
    value {
      list {
        i: 1
        i: 1
        i: 1
        i: 1
      }
    }
  }
  attr {
    key: "padding"
    value {
      s: "SAME"
    }
  }
  attr {
    key: "strides"
    value {
      list {
        i: 1
        i: 1
        i: 1
        i: 1
      }
    }
  }
  attr {
    key: "use_cudnn_on_gpu"
    value {
      b: true
    }
  }
}
node {
  name: "vgg19/vgg_model/block3_conv1/BiasAdd/ReadVariableOp"
  op: "ReadVariableOp"
  input: "vgg19/vgg_model/block3_conv1/bias"
  attr {
    key: "dtype"
    value {
      type: DT_FLOAT
    }
  }
}
node {
  name: "vgg19/vgg_model/block3_conv1/BiasAdd"
  op: "BiasAdd"
  input: "vgg19/vgg_model/block3_conv1/Conv2D"
  input: "vgg19/vgg_model/block3_conv1/BiasAdd/ReadVariableOp"
  attr {
    key: "T"
    value {
      type: DT_FLOAT
    }
  }
  attr {
    key: "data_format"
    value {
      s: "NHWC"
    }
  }
}
node {
  name: "vgg19/vgg_model/block3_conv1/Relu"
  op: "Relu"
  input: "vgg19/vgg_model/block3_conv1/BiasAdd"
  attr {
    key: "T"
    value {
      type: DT_FLOAT
    }
  }
}
node {
  name: "vgg19/vgg_model/block3_conv2/kernel/Initializer/random_uniform/shape"
  op: "Const"
  attr {
    key: "_class"
    value {
      list {
        s: "loc:@vgg19/vgg_model/block3_conv2/kernel"
      }
    }
  }
  attr {
    key: "dtype"
    value {
      type: DT_INT32
    }
  }
  attr {
    key: "value"
    value {
      tensor {
        dtype: DT_INT32
        tensor_shape {
          dim {
            size: 4
          }
        }
        tensor_content: "\003\000\000\000\003\000\000\000\000\001\000\000\000\001\000\000"
      }
    }
  }
}
node {
  name: "vgg19/vgg_model/block3_conv2/kernel/Initializer/random_uniform/min"
  op: "Const"
  attr {
    key: "_class"
    value {
      list {
        s: "loc:@vgg19/vgg_model/block3_conv2/kernel"
      }
    }
  }
  attr {
    key: "dtype"
    value {
      type: DT_FLOAT
    }
  }
  attr {
    key: "value"
    value {
      tensor {
        dtype: DT_FLOAT
        tensor_shape {
        }
        float_val: -0.03608439117670059
      }
    }
  }
}
node {
  name: "vgg19/vgg_model/block3_conv2/kernel/Initializer/random_uniform/max"
  op: "Const"
  attr {
    key: "_class"
    value {
      list {
        s: "loc:@vgg19/vgg_model/block3_conv2/kernel"
      }
    }
  }
  attr {
    key: "dtype"
    value {
      type: DT_FLOAT
    }
  }
  attr {
    key: "value"
    value {
      tensor {
        dtype: DT_FLOAT
        tensor_shape {
        }
        float_val: 0.03608439117670059
      }
    }
  }
}
node {
  name: "vgg19/vgg_model/block3_conv2/kernel/Initializer/random_uniform/RandomUniform"
  op: "RandomUniform"
  input: "vgg19/vgg_model/block3_conv2/kernel/Initializer/random_uniform/shape"
  attr {
    key: "T"
    value {
      type: DT_INT32
    }
  }
  attr {
    key: "_class"
    value {
      list {
        s: "loc:@vgg19/vgg_model/block3_conv2/kernel"
      }
    }
  }
  attr {
    key: "dtype"
    value {
      type: DT_FLOAT
    }
  }
  attr {
    key: "seed"
    value {
      i: 0
    }
  }
  attr {
    key: "seed2"
    value {
      i: 0
    }
  }
}
node {
  name: "vgg19/vgg_model/block3_conv2/kernel/Initializer/random_uniform/sub"
  op: "Sub"
  input: "vgg19/vgg_model/block3_conv2/kernel/Initializer/random_uniform/max"
  input: "vgg19/vgg_model/block3_conv2/kernel/Initializer/random_uniform/min"
  attr {
    key: "T"
    value {
      type: DT_FLOAT
    }
  }
  attr {
    key: "_class"
    value {
      list {
        s: "loc:@vgg19/vgg_model/block3_conv2/kernel"
      }
    }
  }
}
node {
  name: "vgg19/vgg_model/block3_conv2/kernel/Initializer/random_uniform/mul"
  op: "Mul"
  input: "vgg19/vgg_model/block3_conv2/kernel/Initializer/random_uniform/RandomUniform"
  input: "vgg19/vgg_model/block3_conv2/kernel/Initializer/random_uniform/sub"
  attr {
    key: "T"
    value {
      type: DT_FLOAT
    }
  }
  attr {
    key: "_class"
    value {
      list {
        s: "loc:@vgg19/vgg_model/block3_conv2/kernel"
      }
    }
  }
}
node {
  name: "vgg19/vgg_model/block3_conv2/kernel/Initializer/random_uniform"
  op: "Add"
  input: "vgg19/vgg_model/block3_conv2/kernel/Initializer/random_uniform/mul"
  input: "vgg19/vgg_model/block3_conv2/kernel/Initializer/random_uniform/min"
  attr {
    key: "T"
    value {
      type: DT_FLOAT
    }
  }
  attr {
    key: "_class"
    value {
      list {
        s: "loc:@vgg19/vgg_model/block3_conv2/kernel"
      }
    }
  }
}
node {
  name: "vgg19/vgg_model/block3_conv2/kernel"
  op: "VarHandleOp"
  attr {
    key: "_class"
    value {
      list {
        s: "loc:@vgg19/vgg_model/block3_conv2/kernel"
      }
    }
  }
  attr {
    key: "container"
    value {
      s: ""
    }
  }
  attr {
    key: "dtype"
    value {
      type: DT_FLOAT
    }
  }
  attr {
    key: "shape"
    value {
      shape {
        dim {
          size: 3
        }
        dim {
          size: 3
        }
        dim {
          size: 256
        }
        dim {
          size: 256
        }
      }
    }
  }
  attr {
    key: "shared_name"
    value {
      s: "vgg19/vgg_model/block3_conv2/kernel"
    }
  }
}
node {
  name: "vgg19/vgg_model/block3_conv2/kernel/IsInitialized/VarIsInitializedOp"
  op: "VarIsInitializedOp"
  input: "vgg19/vgg_model/block3_conv2/kernel"
}
node {
  name: "vgg19/vgg_model/block3_conv2/kernel/Assign"
  op: "AssignVariableOp"
  input: "vgg19/vgg_model/block3_conv2/kernel"
  input: "vgg19/vgg_model/block3_conv2/kernel/Initializer/random_uniform"
  attr {
    key: "_class"
    value {
      list {
        s: "loc:@vgg19/vgg_model/block3_conv2/kernel"
      }
    }
  }
  attr {
    key: "dtype"
    value {
      type: DT_FLOAT
    }
  }
}
node {
  name: "vgg19/vgg_model/block3_conv2/kernel/Read/ReadVariableOp"
  op: "ReadVariableOp"
  input: "vgg19/vgg_model/block3_conv2/kernel"
  attr {
    key: "_class"
    value {
      list {
        s: "loc:@vgg19/vgg_model/block3_conv2/kernel"
      }
    }
  }
  attr {
    key: "dtype"
    value {
      type: DT_FLOAT
    }
  }
}
node {
  name: "vgg19/vgg_model/block3_conv2/bias/Initializer/zeros"
  op: "Const"
  attr {
    key: "_class"
    value {
      list {
        s: "loc:@vgg19/vgg_model/block3_conv2/bias"
      }
    }
  }
  attr {
    key: "dtype"
    value {
      type: DT_FLOAT
    }
  }
  attr {
    key: "value"
    value {
      tensor {
        dtype: DT_FLOAT
        tensor_shape {
          dim {
            size: 256
          }
        }
        float_val: 0.0
      }
    }
  }
}
node {
  name: "vgg19/vgg_model/block3_conv2/bias"
  op: "VarHandleOp"
  attr {
    key: "_class"
    value {
      list {
        s: "loc:@vgg19/vgg_model/block3_conv2/bias"
      }
    }
  }
  attr {
    key: "container"
    value {
      s: ""
    }
  }
  attr {
    key: "dtype"
    value {
      type: DT_FLOAT
    }
  }
  attr {
    key: "shape"
    value {
      shape {
        dim {
          size: 256
        }
      }
    }
  }
  attr {
    key: "shared_name"
    value {
      s: "vgg19/vgg_model/block3_conv2/bias"
    }
  }
}
node {
  name: "vgg19/vgg_model/block3_conv2/bias/IsInitialized/VarIsInitializedOp"
  op: "VarIsInitializedOp"
  input: "vgg19/vgg_model/block3_conv2/bias"
}
node {
  name: "vgg19/vgg_model/block3_conv2/bias/Assign"
  op: "AssignVariableOp"
  input: "vgg19/vgg_model/block3_conv2/bias"
  input: "vgg19/vgg_model/block3_conv2/bias/Initializer/zeros"
  attr {
    key: "_class"
    value {
      list {
        s: "loc:@vgg19/vgg_model/block3_conv2/bias"
      }
    }
  }
  attr {
    key: "dtype"
    value {
      type: DT_FLOAT
    }
  }
}
node {
  name: "vgg19/vgg_model/block3_conv2/bias/Read/ReadVariableOp"
  op: "ReadVariableOp"
  input: "vgg19/vgg_model/block3_conv2/bias"
  attr {
    key: "_class"
    value {
      list {
        s: "loc:@vgg19/vgg_model/block3_conv2/bias"
      }
    }
  }
  attr {
    key: "dtype"
    value {
      type: DT_FLOAT
    }
  }
}
node {
  name: "vgg19/vgg_model/block3_conv2/dilation_rate"
  op: "Const"
  attr {
    key: "dtype"
    value {
      type: DT_INT32
    }
  }
  attr {
    key: "value"
    value {
      tensor {
        dtype: DT_INT32
        tensor_shape {
          dim {
            size: 2
          }
        }
        tensor_content: "\001\000\000\000\001\000\000\000"
      }
    }
  }
}
node {
  name: "vgg19/vgg_model/block3_conv2/Conv2D/ReadVariableOp"
  op: "ReadVariableOp"
  input: "vgg19/vgg_model/block3_conv2/kernel"
  attr {
    key: "dtype"
    value {
      type: DT_FLOAT
    }
  }
}
node {
  name: "vgg19/vgg_model/block3_conv2/Conv2D"
  op: "Conv2D"
  input: "vgg19/vgg_model/block3_conv1/Relu"
  input: "vgg19/vgg_model/block3_conv2/Conv2D/ReadVariableOp"
  attr {
    key: "T"
    value {
      type: DT_FLOAT
    }
  }
  attr {
    key: "data_format"
    value {
      s: "NHWC"
    }
  }
  attr {
    key: "dilations"
    value {
      list {
        i: 1
        i: 1
        i: 1
        i: 1
      }
    }
  }
  attr {
    key: "padding"
    value {
      s: "SAME"
    }
  }
  attr {
    key: "strides"
    value {
      list {
        i: 1
        i: 1
        i: 1
        i: 1
      }
    }
  }
  attr {
    key: "use_cudnn_on_gpu"
    value {
      b: true
    }
  }
}
node {
  name: "vgg19/vgg_model/block3_conv2/BiasAdd/ReadVariableOp"
  op: "ReadVariableOp"
  input: "vgg19/vgg_model/block3_conv2/bias"
  attr {
    key: "dtype"
    value {
      type: DT_FLOAT
    }
  }
}
node {
  name: "vgg19/vgg_model/block3_conv2/BiasAdd"
  op: "BiasAdd"
  input: "vgg19/vgg_model/block3_conv2/Conv2D"
  input: "vgg19/vgg_model/block3_conv2/BiasAdd/ReadVariableOp"
  attr {
    key: "T"
    value {
      type: DT_FLOAT
    }
  }
  attr {
    key: "data_format"
    value {
      s: "NHWC"
    }
  }
}
node {
  name: "vgg19/vgg_model/block3_conv2/Relu"
  op: "Relu"
  input: "vgg19/vgg_model/block3_conv2/BiasAdd"
  attr {
    key: "T"
    value {
      type: DT_FLOAT
    }
  }
}
node {
  name: "vgg19/vgg_model/block3_conv3/kernel/Initializer/random_uniform/shape"
  op: "Const"
  attr {
    key: "_class"
    value {
      list {
        s: "loc:@vgg19/vgg_model/block3_conv3/kernel"
      }
    }
  }
  attr {
    key: "dtype"
    value {
      type: DT_INT32
    }
  }
  attr {
    key: "value"
    value {
      tensor {
        dtype: DT_INT32
        tensor_shape {
          dim {
            size: 4
          }
        }
        tensor_content: "\003\000\000\000\003\000\000\000\000\001\000\000\000\001\000\000"
      }
    }
  }
}
node {
  name: "vgg19/vgg_model/block3_conv3/kernel/Initializer/random_uniform/min"
  op: "Const"
  attr {
    key: "_class"
    value {
      list {
        s: "loc:@vgg19/vgg_model/block3_conv3/kernel"
      }
    }
  }
  attr {
    key: "dtype"
    value {
      type: DT_FLOAT
    }
  }
  attr {
    key: "value"
    value {
      tensor {
        dtype: DT_FLOAT
        tensor_shape {
        }
        float_val: -0.03608439117670059
      }
    }
  }
}
node {
  name: "vgg19/vgg_model/block3_conv3/kernel/Initializer/random_uniform/max"
  op: "Const"
  attr {
    key: "_class"
    value {
      list {
        s: "loc:@vgg19/vgg_model/block3_conv3/kernel"
      }
    }
  }
  attr {
    key: "dtype"
    value {
      type: DT_FLOAT
    }
  }
  attr {
    key: "value"
    value {
      tensor {
        dtype: DT_FLOAT
        tensor_shape {
        }
        float_val: 0.03608439117670059
      }
    }
  }
}
node {
  name: "vgg19/vgg_model/block3_conv3/kernel/Initializer/random_uniform/RandomUniform"
  op: "RandomUniform"
  input: "vgg19/vgg_model/block3_conv3/kernel/Initializer/random_uniform/shape"
  attr {
    key: "T"
    value {
      type: DT_INT32
    }
  }
  attr {
    key: "_class"
    value {
      list {
        s: "loc:@vgg19/vgg_model/block3_conv3/kernel"
      }
    }
  }
  attr {
    key: "dtype"
    value {
      type: DT_FLOAT
    }
  }
  attr {
    key: "seed"
    value {
      i: 0
    }
  }
  attr {
    key: "seed2"
    value {
      i: 0
    }
  }
}
node {
  name: "vgg19/vgg_model/block3_conv3/kernel/Initializer/random_uniform/sub"
  op: "Sub"
  input: "vgg19/vgg_model/block3_conv3/kernel/Initializer/random_uniform/max"
  input: "vgg19/vgg_model/block3_conv3/kernel/Initializer/random_uniform/min"
  attr {
    key: "T"
    value {
      type: DT_FLOAT
    }
  }
  attr {
    key: "_class"
    value {
      list {
        s: "loc:@vgg19/vgg_model/block3_conv3/kernel"
      }
    }
  }
}
node {
  name: "vgg19/vgg_model/block3_conv3/kernel/Initializer/random_uniform/mul"
  op: "Mul"
  input: "vgg19/vgg_model/block3_conv3/kernel/Initializer/random_uniform/RandomUniform"
  input: "vgg19/vgg_model/block3_conv3/kernel/Initializer/random_uniform/sub"
  attr {
    key: "T"
    value {
      type: DT_FLOAT
    }
  }
  attr {
    key: "_class"
    value {
      list {
        s: "loc:@vgg19/vgg_model/block3_conv3/kernel"
      }
    }
  }
}
node {
  name: "vgg19/vgg_model/block3_conv3/kernel/Initializer/random_uniform"
  op: "Add"
  input: "vgg19/vgg_model/block3_conv3/kernel/Initializer/random_uniform/mul"
  input: "vgg19/vgg_model/block3_conv3/kernel/Initializer/random_uniform/min"
  attr {
    key: "T"
    value {
      type: DT_FLOAT
    }
  }
  attr {
    key: "_class"
    value {
      list {
        s: "loc:@vgg19/vgg_model/block3_conv3/kernel"
      }
    }
  }
}
node {
  name: "vgg19/vgg_model/block3_conv3/kernel"
  op: "VarHandleOp"
  attr {
    key: "_class"
    value {
      list {
        s: "loc:@vgg19/vgg_model/block3_conv3/kernel"
      }
    }
  }
  attr {
    key: "container"
    value {
      s: ""
    }
  }
  attr {
    key: "dtype"
    value {
      type: DT_FLOAT
    }
  }
  attr {
    key: "shape"
    value {
      shape {
        dim {
          size: 3
        }
        dim {
          size: 3
        }
        dim {
          size: 256
        }
        dim {
          size: 256
        }
      }
    }
  }
  attr {
    key: "shared_name"
    value {
      s: "vgg19/vgg_model/block3_conv3/kernel"
    }
  }
}
node {
  name: "vgg19/vgg_model/block3_conv3/kernel/IsInitialized/VarIsInitializedOp"
  op: "VarIsInitializedOp"
  input: "vgg19/vgg_model/block3_conv3/kernel"
}
node {
  name: "vgg19/vgg_model/block3_conv3/kernel/Assign"
  op: "AssignVariableOp"
  input: "vgg19/vgg_model/block3_conv3/kernel"
  input: "vgg19/vgg_model/block3_conv3/kernel/Initializer/random_uniform"
  attr {
    key: "_class"
    value {
      list {
        s: "loc:@vgg19/vgg_model/block3_conv3/kernel"
      }
    }
  }
  attr {
    key: "dtype"
    value {
      type: DT_FLOAT
    }
  }
}
node {
  name: "vgg19/vgg_model/block3_conv3/kernel/Read/ReadVariableOp"
  op: "ReadVariableOp"
  input: "vgg19/vgg_model/block3_conv3/kernel"
  attr {
    key: "_class"
    value {
      list {
        s: "loc:@vgg19/vgg_model/block3_conv3/kernel"
      }
    }
  }
  attr {
    key: "dtype"
    value {
      type: DT_FLOAT
    }
  }
}
node {
  name: "vgg19/vgg_model/block3_conv3/bias/Initializer/zeros"
  op: "Const"
  attr {
    key: "_class"
    value {
      list {
        s: "loc:@vgg19/vgg_model/block3_conv3/bias"
      }
    }
  }
  attr {
    key: "dtype"
    value {
      type: DT_FLOAT
    }
  }
  attr {
    key: "value"
    value {
      tensor {
        dtype: DT_FLOAT
        tensor_shape {
          dim {
            size: 256
          }
        }
        float_val: 0.0
      }
    }
  }
}
node {
  name: "vgg19/vgg_model/block3_conv3/bias"
  op: "VarHandleOp"
  attr {
    key: "_class"
    value {
      list {
        s: "loc:@vgg19/vgg_model/block3_conv3/bias"
      }
    }
  }
  attr {
    key: "container"
    value {
      s: ""
    }
  }
  attr {
    key: "dtype"
    value {
      type: DT_FLOAT
    }
  }
  attr {
    key: "shape"
    value {
      shape {
        dim {
          size: 256
        }
      }
    }
  }
  attr {
    key: "shared_name"
    value {
      s: "vgg19/vgg_model/block3_conv3/bias"
    }
  }
}
node {
  name: "vgg19/vgg_model/block3_conv3/bias/IsInitialized/VarIsInitializedOp"
  op: "VarIsInitializedOp"
  input: "vgg19/vgg_model/block3_conv3/bias"
}
node {
  name: "vgg19/vgg_model/block3_conv3/bias/Assign"
  op: "AssignVariableOp"
  input: "vgg19/vgg_model/block3_conv3/bias"
  input: "vgg19/vgg_model/block3_conv3/bias/Initializer/zeros"
  attr {
    key: "_class"
    value {
      list {
        s: "loc:@vgg19/vgg_model/block3_conv3/bias"
      }
    }
  }
  attr {
    key: "dtype"
    value {
      type: DT_FLOAT
    }
  }
}
node {
  name: "vgg19/vgg_model/block3_conv3/bias/Read/ReadVariableOp"
  op: "ReadVariableOp"
  input: "vgg19/vgg_model/block3_conv3/bias"
  attr {
    key: "_class"
    value {
      list {
        s: "loc:@vgg19/vgg_model/block3_conv3/bias"
      }
    }
  }
  attr {
    key: "dtype"
    value {
      type: DT_FLOAT
    }
  }
}
node {
  name: "vgg19/vgg_model/block3_conv3/dilation_rate"
  op: "Const"
  attr {
    key: "dtype"
    value {
      type: DT_INT32
    }
  }
  attr {
    key: "value"
    value {
      tensor {
        dtype: DT_INT32
        tensor_shape {
          dim {
            size: 2
          }
        }
        tensor_content: "\001\000\000\000\001\000\000\000"
      }
    }
  }
}
node {
  name: "vgg19/vgg_model/block3_conv3/Conv2D/ReadVariableOp"
  op: "ReadVariableOp"
  input: "vgg19/vgg_model/block3_conv3/kernel"
  attr {
    key: "dtype"
    value {
      type: DT_FLOAT
    }
  }
}
node {
  name: "vgg19/vgg_model/block3_conv3/Conv2D"
  op: "Conv2D"
  input: "vgg19/vgg_model/block3_conv2/Relu"
  input: "vgg19/vgg_model/block3_conv3/Conv2D/ReadVariableOp"
  attr {
    key: "T"
    value {
      type: DT_FLOAT
    }
  }
  attr {
    key: "data_format"
    value {
      s: "NHWC"
    }
  }
  attr {
    key: "dilations"
    value {
      list {
        i: 1
        i: 1
        i: 1
        i: 1
      }
    }
  }
  attr {
    key: "padding"
    value {
      s: "SAME"
    }
  }
  attr {
    key: "strides"
    value {
      list {
        i: 1
        i: 1
        i: 1
        i: 1
      }
    }
  }
  attr {
    key: "use_cudnn_on_gpu"
    value {
      b: true
    }
  }
}
node {
  name: "vgg19/vgg_model/block3_conv3/BiasAdd/ReadVariableOp"
  op: "ReadVariableOp"
  input: "vgg19/vgg_model/block3_conv3/bias"
  attr {
    key: "dtype"
    value {
      type: DT_FLOAT
    }
  }
}
node {
  name: "vgg19/vgg_model/block3_conv3/BiasAdd"
  op: "BiasAdd"
  input: "vgg19/vgg_model/block3_conv3/Conv2D"
  input: "vgg19/vgg_model/block3_conv3/BiasAdd/ReadVariableOp"
  attr {
    key: "T"
    value {
      type: DT_FLOAT
    }
  }
  attr {
    key: "data_format"
    value {
      s: "NHWC"
    }
  }
}
node {
  name: "vgg19/vgg_model/block3_conv3/Relu"
  op: "Relu"
  input: "vgg19/vgg_model/block3_conv3/BiasAdd"
  attr {
    key: "T"
    value {
      type: DT_FLOAT
    }
  }
}
node {
  name: "vgg19/vgg_model/block3_conv4/kernel/Initializer/random_uniform/shape"
  op: "Const"
  attr {
    key: "_class"
    value {
      list {
        s: "loc:@vgg19/vgg_model/block3_conv4/kernel"
      }
    }
  }
  attr {
    key: "dtype"
    value {
      type: DT_INT32
    }
  }
  attr {
    key: "value"
    value {
      tensor {
        dtype: DT_INT32
        tensor_shape {
          dim {
            size: 4
          }
        }
        tensor_content: "\003\000\000\000\003\000\000\000\000\001\000\000\000\001\000\000"
      }
    }
  }
}
node {
  name: "vgg19/vgg_model/block3_conv4/kernel/Initializer/random_uniform/min"
  op: "Const"
  attr {
    key: "_class"
    value {
      list {
        s: "loc:@vgg19/vgg_model/block3_conv4/kernel"
      }
    }
  }
  attr {
    key: "dtype"
    value {
      type: DT_FLOAT
    }
  }
  attr {
    key: "value"
    value {
      tensor {
        dtype: DT_FLOAT
        tensor_shape {
        }
        float_val: -0.03608439117670059
      }
    }
  }
}
node {
  name: "vgg19/vgg_model/block3_conv4/kernel/Initializer/random_uniform/max"
  op: "Const"
  attr {
    key: "_class"
    value {
      list {
        s: "loc:@vgg19/vgg_model/block3_conv4/kernel"
      }
    }
  }
  attr {
    key: "dtype"
    value {
      type: DT_FLOAT
    }
  }
  attr {
    key: "value"
    value {
      tensor {
        dtype: DT_FLOAT
        tensor_shape {
        }
        float_val: 0.03608439117670059
      }
    }
  }
}
node {
  name: "vgg19/vgg_model/block3_conv4/kernel/Initializer/random_uniform/RandomUniform"
  op: "RandomUniform"
  input: "vgg19/vgg_model/block3_conv4/kernel/Initializer/random_uniform/shape"
  attr {
    key: "T"
    value {
      type: DT_INT32
    }
  }
  attr {
    key: "_class"
    value {
      list {
        s: "loc:@vgg19/vgg_model/block3_conv4/kernel"
      }
    }
  }
  attr {
    key: "dtype"
    value {
      type: DT_FLOAT
    }
  }
  attr {
    key: "seed"
    value {
      i: 0
    }
  }
  attr {
    key: "seed2"
    value {
      i: 0
    }
  }
}
node {
  name: "vgg19/vgg_model/block3_conv4/kernel/Initializer/random_uniform/sub"
  op: "Sub"
  input: "vgg19/vgg_model/block3_conv4/kernel/Initializer/random_uniform/max"
  input: "vgg19/vgg_model/block3_conv4/kernel/Initializer/random_uniform/min"
  attr {
    key: "T"
    value {
      type: DT_FLOAT
    }
  }
  attr {
    key: "_class"
    value {
      list {
        s: "loc:@vgg19/vgg_model/block3_conv4/kernel"
      }
    }
  }
}
node {
  name: "vgg19/vgg_model/block3_conv4/kernel/Initializer/random_uniform/mul"
  op: "Mul"
  input: "vgg19/vgg_model/block3_conv4/kernel/Initializer/random_uniform/RandomUniform"
  input: "vgg19/vgg_model/block3_conv4/kernel/Initializer/random_uniform/sub"
  attr {
    key: "T"
    value {
      type: DT_FLOAT
    }
  }
  attr {
    key: "_class"
    value {
      list {
        s: "loc:@vgg19/vgg_model/block3_conv4/kernel"
      }
    }
  }
}
node {
  name: "vgg19/vgg_model/block3_conv4/kernel/Initializer/random_uniform"
  op: "Add"
  input: "vgg19/vgg_model/block3_conv4/kernel/Initializer/random_uniform/mul"
  input: "vgg19/vgg_model/block3_conv4/kernel/Initializer/random_uniform/min"
  attr {
    key: "T"
    value {
      type: DT_FLOAT
    }
  }
  attr {
    key: "_class"
    value {
      list {
        s: "loc:@vgg19/vgg_model/block3_conv4/kernel"
      }
    }
  }
}
node {
  name: "vgg19/vgg_model/block3_conv4/kernel"
  op: "VarHandleOp"
  attr {
    key: "_class"
    value {
      list {
        s: "loc:@vgg19/vgg_model/block3_conv4/kernel"
      }
    }
  }
  attr {
    key: "container"
    value {
      s: ""
    }
  }
  attr {
    key: "dtype"
    value {
      type: DT_FLOAT
    }
  }
  attr {
    key: "shape"
    value {
      shape {
        dim {
          size: 3
        }
        dim {
          size: 3
        }
        dim {
          size: 256
        }
        dim {
          size: 256
        }
      }
    }
  }
  attr {
    key: "shared_name"
    value {
      s: "vgg19/vgg_model/block3_conv4/kernel"
    }
  }
}
node {
  name: "vgg19/vgg_model/block3_conv4/kernel/IsInitialized/VarIsInitializedOp"
  op: "VarIsInitializedOp"
  input: "vgg19/vgg_model/block3_conv4/kernel"
}
node {
  name: "vgg19/vgg_model/block3_conv4/kernel/Assign"
  op: "AssignVariableOp"
  input: "vgg19/vgg_model/block3_conv4/kernel"
  input: "vgg19/vgg_model/block3_conv4/kernel/Initializer/random_uniform"
  attr {
    key: "_class"
    value {
      list {
        s: "loc:@vgg19/vgg_model/block3_conv4/kernel"
      }
    }
  }
  attr {
    key: "dtype"
    value {
      type: DT_FLOAT
    }
  }
}
node {
  name: "vgg19/vgg_model/block3_conv4/kernel/Read/ReadVariableOp"
  op: "ReadVariableOp"
  input: "vgg19/vgg_model/block3_conv4/kernel"
  attr {
    key: "_class"
    value {
      list {
        s: "loc:@vgg19/vgg_model/block3_conv4/kernel"
      }
    }
  }
  attr {
    key: "dtype"
    value {
      type: DT_FLOAT
    }
  }
}
node {
  name: "vgg19/vgg_model/block3_conv4/bias/Initializer/zeros"
  op: "Const"
  attr {
    key: "_class"
    value {
      list {
        s: "loc:@vgg19/vgg_model/block3_conv4/bias"
      }
    }
  }
  attr {
    key: "dtype"
    value {
      type: DT_FLOAT
    }
  }
  attr {
    key: "value"
    value {
      tensor {
        dtype: DT_FLOAT
        tensor_shape {
          dim {
            size: 256
          }
        }
        float_val: 0.0
      }
    }
  }
}
node {
  name: "vgg19/vgg_model/block3_conv4/bias"
  op: "VarHandleOp"
  attr {
    key: "_class"
    value {
      list {
        s: "loc:@vgg19/vgg_model/block3_conv4/bias"
      }
    }
  }
  attr {
    key: "container"
    value {
      s: ""
    }
  }
  attr {
    key: "dtype"
    value {
      type: DT_FLOAT
    }
  }
  attr {
    key: "shape"
    value {
      shape {
        dim {
          size: 256
        }
      }
    }
  }
  attr {
    key: "shared_name"
    value {
      s: "vgg19/vgg_model/block3_conv4/bias"
    }
  }
}
node {
  name: "vgg19/vgg_model/block3_conv4/bias/IsInitialized/VarIsInitializedOp"
  op: "VarIsInitializedOp"
  input: "vgg19/vgg_model/block3_conv4/bias"
}
node {
  name: "vgg19/vgg_model/block3_conv4/bias/Assign"
  op: "AssignVariableOp"
  input: "vgg19/vgg_model/block3_conv4/bias"
  input: "vgg19/vgg_model/block3_conv4/bias/Initializer/zeros"
  attr {
    key: "_class"
    value {
      list {
        s: "loc:@vgg19/vgg_model/block3_conv4/bias"
      }
    }
  }
  attr {
    key: "dtype"
    value {
      type: DT_FLOAT
    }
  }
}
node {
  name: "vgg19/vgg_model/block3_conv4/bias/Read/ReadVariableOp"
  op: "ReadVariableOp"
  input: "vgg19/vgg_model/block3_conv4/bias"
  attr {
    key: "_class"
    value {
      list {
        s: "loc:@vgg19/vgg_model/block3_conv4/bias"
      }
    }
  }
  attr {
    key: "dtype"
    value {
      type: DT_FLOAT
    }
  }
}
node {
  name: "vgg19/vgg_model/block3_conv4/dilation_rate"
  op: "Const"
  attr {
    key: "dtype"
    value {
      type: DT_INT32
    }
  }
  attr {
    key: "value"
    value {
      tensor {
        dtype: DT_INT32
        tensor_shape {
          dim {
            size: 2
          }
        }
        tensor_content: "\001\000\000\000\001\000\000\000"
      }
    }
  }
}
node {
  name: "vgg19/vgg_model/block3_conv4/Conv2D/ReadVariableOp"
  op: "ReadVariableOp"
  input: "vgg19/vgg_model/block3_conv4/kernel"
  attr {
    key: "dtype"
    value {
      type: DT_FLOAT
    }
  }
}
node {
  name: "vgg19/vgg_model/block3_conv4/Conv2D"
  op: "Conv2D"
  input: "vgg19/vgg_model/block3_conv3/Relu"
  input: "vgg19/vgg_model/block3_conv4/Conv2D/ReadVariableOp"
  attr {
    key: "T"
    value {
      type: DT_FLOAT
    }
  }
  attr {
    key: "data_format"
    value {
      s: "NHWC"
    }
  }
  attr {
    key: "dilations"
    value {
      list {
        i: 1
        i: 1
        i: 1
        i: 1
      }
    }
  }
  attr {
    key: "padding"
    value {
      s: "SAME"
    }
  }
  attr {
    key: "strides"
    value {
      list {
        i: 1
        i: 1
        i: 1
        i: 1
      }
    }
  }
  attr {
    key: "use_cudnn_on_gpu"
    value {
      b: true
    }
  }
}
node {
  name: "vgg19/vgg_model/block3_conv4/BiasAdd/ReadVariableOp"
  op: "ReadVariableOp"
  input: "vgg19/vgg_model/block3_conv4/bias"
  attr {
    key: "dtype"
    value {
      type: DT_FLOAT
    }
  }
}
node {
  name: "vgg19/vgg_model/block3_conv4/BiasAdd"
  op: "BiasAdd"
  input: "vgg19/vgg_model/block3_conv4/Conv2D"
  input: "vgg19/vgg_model/block3_conv4/BiasAdd/ReadVariableOp"
  attr {
    key: "T"
    value {
      type: DT_FLOAT
    }
  }
  attr {
    key: "data_format"
    value {
      s: "NHWC"
    }
  }
}
node {
  name: "vgg19/vgg_model/block3_conv4/Relu"
  op: "Relu"
  input: "vgg19/vgg_model/block3_conv4/BiasAdd"
  attr {
    key: "T"
    value {
      type: DT_FLOAT
    }
  }
}
node {
  name: "vgg19/vgg_model/block3_pool/MaxPool"
  op: "MaxPool"
  input: "vgg19/vgg_model/block3_conv4/Relu"
  attr {
    key: "T"
    value {
      type: DT_FLOAT
    }
  }
  attr {
    key: "data_format"
    value {
      s: "NHWC"
    }
  }
  attr {
    key: "ksize"
    value {
      list {
        i: 1
        i: 2
        i: 2
        i: 1
      }
    }
  }
  attr {
    key: "padding"
    value {
      s: "VALID"
    }
  }
  attr {
    key: "strides"
    value {
      list {
        i: 1
        i: 2
        i: 2
        i: 1
      }
    }
  }
}
node {
  name: "vgg19/vgg_model/block4_conv1/kernel/Initializer/random_uniform/shape"
  op: "Const"
  attr {
    key: "_class"
    value {
      list {
        s: "loc:@vgg19/vgg_model/block4_conv1/kernel"
      }
    }
  }
  attr {
    key: "dtype"
    value {
      type: DT_INT32
    }
  }
  attr {
    key: "value"
    value {
      tensor {
        dtype: DT_INT32
        tensor_shape {
          dim {
            size: 4
          }
        }
        tensor_content: "\003\000\000\000\003\000\000\000\000\001\000\000\000\002\000\000"
      }
    }
  }
}
node {
  name: "vgg19/vgg_model/block4_conv1/kernel/Initializer/random_uniform/min"
  op: "Const"
  attr {
    key: "_class"
    value {
      list {
        s: "loc:@vgg19/vgg_model/block4_conv1/kernel"
      }
    }
  }
  attr {
    key: "dtype"
    value {
      type: DT_FLOAT
    }
  }
  attr {
    key: "value"
    value {
      tensor {
        dtype: DT_FLOAT
        tensor_shape {
        }
        float_val: -0.02946278266608715
      }
    }
  }
}
node {
  name: "vgg19/vgg_model/block4_conv1/kernel/Initializer/random_uniform/max"
  op: "Const"
  attr {
    key: "_class"
    value {
      list {
        s: "loc:@vgg19/vgg_model/block4_conv1/kernel"
      }
    }
  }
  attr {
    key: "dtype"
    value {
      type: DT_FLOAT
    }
  }
  attr {
    key: "value"
    value {
      tensor {
        dtype: DT_FLOAT
        tensor_shape {
        }
        float_val: 0.02946278266608715
      }
    }
  }
}
node {
  name: "vgg19/vgg_model/block4_conv1/kernel/Initializer/random_uniform/RandomUniform"
  op: "RandomUniform"
  input: "vgg19/vgg_model/block4_conv1/kernel/Initializer/random_uniform/shape"
  attr {
    key: "T"
    value {
      type: DT_INT32
    }
  }
  attr {
    key: "_class"
    value {
      list {
        s: "loc:@vgg19/vgg_model/block4_conv1/kernel"
      }
    }
  }
  attr {
    key: "dtype"
    value {
      type: DT_FLOAT
    }
  }
  attr {
    key: "seed"
    value {
      i: 0
    }
  }
  attr {
    key: "seed2"
    value {
      i: 0
    }
  }
}
node {
  name: "vgg19/vgg_model/block4_conv1/kernel/Initializer/random_uniform/sub"
  op: "Sub"
  input: "vgg19/vgg_model/block4_conv1/kernel/Initializer/random_uniform/max"
  input: "vgg19/vgg_model/block4_conv1/kernel/Initializer/random_uniform/min"
  attr {
    key: "T"
    value {
      type: DT_FLOAT
    }
  }
  attr {
    key: "_class"
    value {
      list {
        s: "loc:@vgg19/vgg_model/block4_conv1/kernel"
      }
    }
  }
}
node {
  name: "vgg19/vgg_model/block4_conv1/kernel/Initializer/random_uniform/mul"
  op: "Mul"
  input: "vgg19/vgg_model/block4_conv1/kernel/Initializer/random_uniform/RandomUniform"
  input: "vgg19/vgg_model/block4_conv1/kernel/Initializer/random_uniform/sub"
  attr {
    key: "T"
    value {
      type: DT_FLOAT
    }
  }
  attr {
    key: "_class"
    value {
      list {
        s: "loc:@vgg19/vgg_model/block4_conv1/kernel"
      }
    }
  }
}
node {
  name: "vgg19/vgg_model/block4_conv1/kernel/Initializer/random_uniform"
  op: "Add"
  input: "vgg19/vgg_model/block4_conv1/kernel/Initializer/random_uniform/mul"
  input: "vgg19/vgg_model/block4_conv1/kernel/Initializer/random_uniform/min"
  attr {
    key: "T"
    value {
      type: DT_FLOAT
    }
  }
  attr {
    key: "_class"
    value {
      list {
        s: "loc:@vgg19/vgg_model/block4_conv1/kernel"
      }
    }
  }
}
node {
  name: "vgg19/vgg_model/block4_conv1/kernel"
  op: "VarHandleOp"
  attr {
    key: "_class"
    value {
      list {
        s: "loc:@vgg19/vgg_model/block4_conv1/kernel"
      }
    }
  }
  attr {
    key: "container"
    value {
      s: ""
    }
  }
  attr {
    key: "dtype"
    value {
      type: DT_FLOAT
    }
  }
  attr {
    key: "shape"
    value {
      shape {
        dim {
          size: 3
        }
        dim {
          size: 3
        }
        dim {
          size: 256
        }
        dim {
          size: 512
        }
      }
    }
  }
  attr {
    key: "shared_name"
    value {
      s: "vgg19/vgg_model/block4_conv1/kernel"
    }
  }
}
node {
  name: "vgg19/vgg_model/block4_conv1/kernel/IsInitialized/VarIsInitializedOp"
  op: "VarIsInitializedOp"
  input: "vgg19/vgg_model/block4_conv1/kernel"
}
node {
  name: "vgg19/vgg_model/block4_conv1/kernel/Assign"
  op: "AssignVariableOp"
  input: "vgg19/vgg_model/block4_conv1/kernel"
  input: "vgg19/vgg_model/block4_conv1/kernel/Initializer/random_uniform"
  attr {
    key: "_class"
    value {
      list {
        s: "loc:@vgg19/vgg_model/block4_conv1/kernel"
      }
    }
  }
  attr {
    key: "dtype"
    value {
      type: DT_FLOAT
    }
  }
}
node {
  name: "vgg19/vgg_model/block4_conv1/kernel/Read/ReadVariableOp"
  op: "ReadVariableOp"
  input: "vgg19/vgg_model/block4_conv1/kernel"
  attr {
    key: "_class"
    value {
      list {
        s: "loc:@vgg19/vgg_model/block4_conv1/kernel"
      }
    }
  }
  attr {
    key: "dtype"
    value {
      type: DT_FLOAT
    }
  }
}
node {
  name: "vgg19/vgg_model/block4_conv1/bias/Initializer/zeros"
  op: "Const"
  attr {
    key: "_class"
    value {
      list {
        s: "loc:@vgg19/vgg_model/block4_conv1/bias"
      }
    }
  }
  attr {
    key: "dtype"
    value {
      type: DT_FLOAT
    }
  }
  attr {
    key: "value"
    value {
      tensor {
        dtype: DT_FLOAT
        tensor_shape {
          dim {
            size: 512
          }
        }
        float_val: 0.0
      }
    }
  }
}
node {
  name: "vgg19/vgg_model/block4_conv1/bias"
  op: "VarHandleOp"
  attr {
    key: "_class"
    value {
      list {
        s: "loc:@vgg19/vgg_model/block4_conv1/bias"
      }
    }
  }
  attr {
    key: "container"
    value {
      s: ""
    }
  }
  attr {
    key: "dtype"
    value {
      type: DT_FLOAT
    }
  }
  attr {
    key: "shape"
    value {
      shape {
        dim {
          size: 512
        }
      }
    }
  }
  attr {
    key: "shared_name"
    value {
      s: "vgg19/vgg_model/block4_conv1/bias"
    }
  }
}
node {
  name: "vgg19/vgg_model/block4_conv1/bias/IsInitialized/VarIsInitializedOp"
  op: "VarIsInitializedOp"
  input: "vgg19/vgg_model/block4_conv1/bias"
}
node {
  name: "vgg19/vgg_model/block4_conv1/bias/Assign"
  op: "AssignVariableOp"
  input: "vgg19/vgg_model/block4_conv1/bias"
  input: "vgg19/vgg_model/block4_conv1/bias/Initializer/zeros"
  attr {
    key: "_class"
    value {
      list {
        s: "loc:@vgg19/vgg_model/block4_conv1/bias"
      }
    }
  }
  attr {
    key: "dtype"
    value {
      type: DT_FLOAT
    }
  }
}
node {
  name: "vgg19/vgg_model/block4_conv1/bias/Read/ReadVariableOp"
  op: "ReadVariableOp"
  input: "vgg19/vgg_model/block4_conv1/bias"
  attr {
    key: "_class"
    value {
      list {
        s: "loc:@vgg19/vgg_model/block4_conv1/bias"
      }
    }
  }
  attr {
    key: "dtype"
    value {
      type: DT_FLOAT
    }
  }
}
node {
  name: "vgg19/vgg_model/block4_conv1/dilation_rate"
  op: "Const"
  attr {
    key: "dtype"
    value {
      type: DT_INT32
    }
  }
  attr {
    key: "value"
    value {
      tensor {
        dtype: DT_INT32
        tensor_shape {
          dim {
            size: 2
          }
        }
        tensor_content: "\001\000\000\000\001\000\000\000"
      }
    }
  }
}
node {
  name: "vgg19/vgg_model/block4_conv1/Conv2D/ReadVariableOp"
  op: "ReadVariableOp"
  input: "vgg19/vgg_model/block4_conv1/kernel"
  attr {
    key: "dtype"
    value {
      type: DT_FLOAT
    }
  }
}
node {
  name: "vgg19/vgg_model/block4_conv1/Conv2D"
  op: "Conv2D"
  input: "vgg19/vgg_model/block3_pool/MaxPool"
  input: "vgg19/vgg_model/block4_conv1/Conv2D/ReadVariableOp"
  attr {
    key: "T"
    value {
      type: DT_FLOAT
    }
  }
  attr {
    key: "data_format"
    value {
      s: "NHWC"
    }
  }
  attr {
    key: "dilations"
    value {
      list {
        i: 1
        i: 1
        i: 1
        i: 1
      }
    }
  }
  attr {
    key: "padding"
    value {
      s: "SAME"
    }
  }
  attr {
    key: "strides"
    value {
      list {
        i: 1
        i: 1
        i: 1
        i: 1
      }
    }
  }
  attr {
    key: "use_cudnn_on_gpu"
    value {
      b: true
    }
  }
}
node {
  name: "vgg19/vgg_model/block4_conv1/BiasAdd/ReadVariableOp"
  op: "ReadVariableOp"
  input: "vgg19/vgg_model/block4_conv1/bias"
  attr {
    key: "dtype"
    value {
      type: DT_FLOAT
    }
  }
}
node {
  name: "vgg19/vgg_model/block4_conv1/BiasAdd"
  op: "BiasAdd"
  input: "vgg19/vgg_model/block4_conv1/Conv2D"
  input: "vgg19/vgg_model/block4_conv1/BiasAdd/ReadVariableOp"
  attr {
    key: "T"
    value {
      type: DT_FLOAT
    }
  }
  attr {
    key: "data_format"
    value {
      s: "NHWC"
    }
  }
}
node {
  name: "vgg19/vgg_model/block4_conv1/Relu"
  op: "Relu"
  input: "vgg19/vgg_model/block4_conv1/BiasAdd"
  attr {
    key: "T"
    value {
      type: DT_FLOAT
    }
  }
}
node {
  name: "vgg19/vgg_model/block4_conv2/kernel/Initializer/random_uniform/shape"
  op: "Const"
  attr {
    key: "_class"
    value {
      list {
        s: "loc:@vgg19/vgg_model/block4_conv2/kernel"
      }
    }
  }
  attr {
    key: "dtype"
    value {
      type: DT_INT32
    }
  }
  attr {
    key: "value"
    value {
      tensor {
        dtype: DT_INT32
        tensor_shape {
          dim {
            size: 4
          }
        }
        tensor_content: "\003\000\000\000\003\000\000\000\000\002\000\000\000\002\000\000"
      }
    }
  }
}
node {
  name: "vgg19/vgg_model/block4_conv2/kernel/Initializer/random_uniform/min"
  op: "Const"
  attr {
    key: "_class"
    value {
      list {
        s: "loc:@vgg19/vgg_model/block4_conv2/kernel"
      }
    }
  }
  attr {
    key: "dtype"
    value {
      type: DT_FLOAT
    }
  }
  attr {
    key: "value"
    value {
      tensor {
        dtype: DT_FLOAT
        tensor_shape {
        }
        float_val: -0.025515519082546234
      }
    }
  }
}
node {
  name: "vgg19/vgg_model/block4_conv2/kernel/Initializer/random_uniform/max"
  op: "Const"
  attr {
    key: "_class"
    value {
      list {
        s: "loc:@vgg19/vgg_model/block4_conv2/kernel"
      }
    }
  }
  attr {
    key: "dtype"
    value {
      type: DT_FLOAT
    }
  }
  attr {
    key: "value"
    value {
      tensor {
        dtype: DT_FLOAT
        tensor_shape {
        }
        float_val: 0.025515519082546234
      }
    }
  }
}
node {
  name: "vgg19/vgg_model/block4_conv2/kernel/Initializer/random_uniform/RandomUniform"
  op: "RandomUniform"
  input: "vgg19/vgg_model/block4_conv2/kernel/Initializer/random_uniform/shape"
  attr {
    key: "T"
    value {
      type: DT_INT32
    }
  }
  attr {
    key: "_class"
    value {
      list {
        s: "loc:@vgg19/vgg_model/block4_conv2/kernel"
      }
    }
  }
  attr {
    key: "dtype"
    value {
      type: DT_FLOAT
    }
  }
  attr {
    key: "seed"
    value {
      i: 0
    }
  }
  attr {
    key: "seed2"
    value {
      i: 0
    }
  }
}
node {
  name: "vgg19/vgg_model/block4_conv2/kernel/Initializer/random_uniform/sub"
  op: "Sub"
  input: "vgg19/vgg_model/block4_conv2/kernel/Initializer/random_uniform/max"
  input: "vgg19/vgg_model/block4_conv2/kernel/Initializer/random_uniform/min"
  attr {
    key: "T"
    value {
      type: DT_FLOAT
    }
  }
  attr {
    key: "_class"
    value {
      list {
        s: "loc:@vgg19/vgg_model/block4_conv2/kernel"
      }
    }
  }
}
node {
  name: "vgg19/vgg_model/block4_conv2/kernel/Initializer/random_uniform/mul"
  op: "Mul"
  input: "vgg19/vgg_model/block4_conv2/kernel/Initializer/random_uniform/RandomUniform"
  input: "vgg19/vgg_model/block4_conv2/kernel/Initializer/random_uniform/sub"
  attr {
    key: "T"
    value {
      type: DT_FLOAT
    }
  }
  attr {
    key: "_class"
    value {
      list {
        s: "loc:@vgg19/vgg_model/block4_conv2/kernel"
      }
    }
  }
}
node {
  name: "vgg19/vgg_model/block4_conv2/kernel/Initializer/random_uniform"
  op: "Add"
  input: "vgg19/vgg_model/block4_conv2/kernel/Initializer/random_uniform/mul"
  input: "vgg19/vgg_model/block4_conv2/kernel/Initializer/random_uniform/min"
  attr {
    key: "T"
    value {
      type: DT_FLOAT
    }
  }
  attr {
    key: "_class"
    value {
      list {
        s: "loc:@vgg19/vgg_model/block4_conv2/kernel"
      }
    }
  }
}
node {
  name: "vgg19/vgg_model/block4_conv2/kernel"
  op: "VarHandleOp"
  attr {
    key: "_class"
    value {
      list {
        s: "loc:@vgg19/vgg_model/block4_conv2/kernel"
      }
    }
  }
  attr {
    key: "container"
    value {
      s: ""
    }
  }
  attr {
    key: "dtype"
    value {
      type: DT_FLOAT
    }
  }
  attr {
    key: "shape"
    value {
      shape {
        dim {
          size: 3
        }
        dim {
          size: 3
        }
        dim {
          size: 512
        }
        dim {
          size: 512
        }
      }
    }
  }
  attr {
    key: "shared_name"
    value {
      s: "vgg19/vgg_model/block4_conv2/kernel"
    }
  }
}
node {
  name: "vgg19/vgg_model/block4_conv2/kernel/IsInitialized/VarIsInitializedOp"
  op: "VarIsInitializedOp"
  input: "vgg19/vgg_model/block4_conv2/kernel"
}
node {
  name: "vgg19/vgg_model/block4_conv2/kernel/Assign"
  op: "AssignVariableOp"
  input: "vgg19/vgg_model/block4_conv2/kernel"
  input: "vgg19/vgg_model/block4_conv2/kernel/Initializer/random_uniform"
  attr {
    key: "_class"
    value {
      list {
        s: "loc:@vgg19/vgg_model/block4_conv2/kernel"
      }
    }
  }
  attr {
    key: "dtype"
    value {
      type: DT_FLOAT
    }
  }
}
node {
  name: "vgg19/vgg_model/block4_conv2/kernel/Read/ReadVariableOp"
  op: "ReadVariableOp"
  input: "vgg19/vgg_model/block4_conv2/kernel"
  attr {
    key: "_class"
    value {
      list {
        s: "loc:@vgg19/vgg_model/block4_conv2/kernel"
      }
    }
  }
  attr {
    key: "dtype"
    value {
      type: DT_FLOAT
    }
  }
}
node {
  name: "vgg19/vgg_model/block4_conv2/bias/Initializer/zeros"
  op: "Const"
  attr {
    key: "_class"
    value {
      list {
        s: "loc:@vgg19/vgg_model/block4_conv2/bias"
      }
    }
  }
  attr {
    key: "dtype"
    value {
      type: DT_FLOAT
    }
  }
  attr {
    key: "value"
    value {
      tensor {
        dtype: DT_FLOAT
        tensor_shape {
          dim {
            size: 512
          }
        }
        float_val: 0.0
      }
    }
  }
}
node {
  name: "vgg19/vgg_model/block4_conv2/bias"
  op: "VarHandleOp"
  attr {
    key: "_class"
    value {
      list {
        s: "loc:@vgg19/vgg_model/block4_conv2/bias"
      }
    }
  }
  attr {
    key: "container"
    value {
      s: ""
    }
  }
  attr {
    key: "dtype"
    value {
      type: DT_FLOAT
    }
  }
  attr {
    key: "shape"
    value {
      shape {
        dim {
          size: 512
        }
      }
    }
  }
  attr {
    key: "shared_name"
    value {
      s: "vgg19/vgg_model/block4_conv2/bias"
    }
  }
}
node {
  name: "vgg19/vgg_model/block4_conv2/bias/IsInitialized/VarIsInitializedOp"
  op: "VarIsInitializedOp"
  input: "vgg19/vgg_model/block4_conv2/bias"
}
node {
  name: "vgg19/vgg_model/block4_conv2/bias/Assign"
  op: "AssignVariableOp"
  input: "vgg19/vgg_model/block4_conv2/bias"
  input: "vgg19/vgg_model/block4_conv2/bias/Initializer/zeros"
  attr {
    key: "_class"
    value {
      list {
        s: "loc:@vgg19/vgg_model/block4_conv2/bias"
      }
    }
  }
  attr {
    key: "dtype"
    value {
      type: DT_FLOAT
    }
  }
}
node {
  name: "vgg19/vgg_model/block4_conv2/bias/Read/ReadVariableOp"
  op: "ReadVariableOp"
  input: "vgg19/vgg_model/block4_conv2/bias"
  attr {
    key: "_class"
    value {
      list {
        s: "loc:@vgg19/vgg_model/block4_conv2/bias"
      }
    }
  }
  attr {
    key: "dtype"
    value {
      type: DT_FLOAT
    }
  }
}
node {
  name: "vgg19/vgg_model/block4_conv2/dilation_rate"
  op: "Const"
  attr {
    key: "dtype"
    value {
      type: DT_INT32
    }
  }
  attr {
    key: "value"
    value {
      tensor {
        dtype: DT_INT32
        tensor_shape {
          dim {
            size: 2
          }
        }
        tensor_content: "\001\000\000\000\001\000\000\000"
      }
    }
  }
}
node {
  name: "vgg19/vgg_model/block4_conv2/Conv2D/ReadVariableOp"
  op: "ReadVariableOp"
  input: "vgg19/vgg_model/block4_conv2/kernel"
  attr {
    key: "dtype"
    value {
      type: DT_FLOAT
    }
  }
}
node {
  name: "vgg19/vgg_model/block4_conv2/Conv2D"
  op: "Conv2D"
  input: "vgg19/vgg_model/block4_conv1/Relu"
  input: "vgg19/vgg_model/block4_conv2/Conv2D/ReadVariableOp"
  attr {
    key: "T"
    value {
      type: DT_FLOAT
    }
  }
  attr {
    key: "data_format"
    value {
      s: "NHWC"
    }
  }
  attr {
    key: "dilations"
    value {
      list {
        i: 1
        i: 1
        i: 1
        i: 1
      }
    }
  }
  attr {
    key: "padding"
    value {
      s: "SAME"
    }
  }
  attr {
    key: "strides"
    value {
      list {
        i: 1
        i: 1
        i: 1
        i: 1
      }
    }
  }
  attr {
    key: "use_cudnn_on_gpu"
    value {
      b: true
    }
  }
}
node {
  name: "vgg19/vgg_model/block4_conv2/BiasAdd/ReadVariableOp"
  op: "ReadVariableOp"
  input: "vgg19/vgg_model/block4_conv2/bias"
  attr {
    key: "dtype"
    value {
      type: DT_FLOAT
    }
  }
}
node {
  name: "vgg19/vgg_model/block4_conv2/BiasAdd"
  op: "BiasAdd"
  input: "vgg19/vgg_model/block4_conv2/Conv2D"
  input: "vgg19/vgg_model/block4_conv2/BiasAdd/ReadVariableOp"
  attr {
    key: "T"
    value {
      type: DT_FLOAT
    }
  }
  attr {
    key: "data_format"
    value {
      s: "NHWC"
    }
  }
}
node {
  name: "vgg19/vgg_model/block4_conv2/Relu"
  op: "Relu"
  input: "vgg19/vgg_model/block4_conv2/BiasAdd"
  attr {
    key: "T"
    value {
      type: DT_FLOAT
    }
  }
}
node {
  name: "vgg19/vgg_model/block4_conv3/kernel/Initializer/random_uniform/shape"
  op: "Const"
  attr {
    key: "_class"
    value {
      list {
        s: "loc:@vgg19/vgg_model/block4_conv3/kernel"
      }
    }
  }
  attr {
    key: "dtype"
    value {
      type: DT_INT32
    }
  }
  attr {
    key: "value"
    value {
      tensor {
        dtype: DT_INT32
        tensor_shape {
          dim {
            size: 4
          }
        }
        tensor_content: "\003\000\000\000\003\000\000\000\000\002\000\000\000\002\000\000"
      }
    }
  }
}
node {
  name: "vgg19/vgg_model/block4_conv3/kernel/Initializer/random_uniform/min"
  op: "Const"
  attr {
    key: "_class"
    value {
      list {
…
  name: "vgg19/vgg_model/Placeholder_8"
  op: "Placeholder"
  attr {
    key: "dtype"
    value {
      type: DT_FLOAT
    }
  }
  attr {
    key: "shape"
    value {
      shape {
        dim {
          size: 3
        }
        dim {
          size: 3
        }
        dim {
          size: 128
        }
        dim {
          size: 256
        }
      }
    }
  }
}
node {
  name: "vgg19/vgg_model/AssignVariableOp_8"
  op: "AssignVariableOp"
  input: "vgg19/vgg_model/block3_conv1/kernel"
  input: "vgg19/vgg_model/Placeholder_8"
  attr {
    key: "dtype"
    value {
      type: DT_FLOAT
    }
  }
}
node {
  name: "vgg19/vgg_model/ReadVariableOp_8"
  op: "ReadVariableOp"
  input: "vgg19/vgg_model/block3_conv1/kernel"
  input: "^vgg19/vgg_model/AssignVariableOp_8"
  attr {
    key: "dtype"
    value {
      type: DT_FLOAT
    }
  }
}
node {
  name: "vgg19/vgg_model/Placeholder_9"
  op: "Placeholder"
  attr {
    key: "dtype"
    value {
      type: DT_FLOAT
    }
  }
  attr {
    key: "shape"
    value {
      shape {
        dim {
          size: 256
        }
      }
    }
  }
}
node {
  name: "vgg19/vgg_model/AssignVariableOp_9"
  op: "AssignVariableOp"
  input: "vgg19/vgg_model/block3_conv1/bias"
  input: "vgg19/vgg_model/Placeholder_9"
  attr {
    key: "dtype"
    value {
      type: DT_FLOAT
    }
  }
}
node {
  name: "vgg19/vgg_model/ReadVariableOp_9"
  op: "ReadVariableOp"
  input: "vgg19/vgg_model/block3_conv1/bias"
  input: "^vgg19/vgg_model/AssignVariableOp_9"
  attr {
    key: "dtype"
    value {
      type: DT_FLOAT
    }
  }
}
node {
  name: "vgg19/vgg_model/Placeholder_10"
  op: "Placeholder"
  attr {
    key: "dtype"
    value {
      type: DT_FLOAT
    }
  }
  attr {
    key: "shape"
    value {
      shape {
        dim {
          size: 3
        }
        dim {
          size: 3
        }
        dim {
          size: 256
        }
        dim {
          size: 256
        }
      }
    }
  }
}
node {
  name: "vgg19/vgg_model/AssignVariableOp_10"
  op: "AssignVariableOp"
  input: "vgg19/vgg_model/block3_conv2/kernel"
  input: "vgg19/vgg_model/Placeholder_10"
  attr {
    key: "dtype"
    value {
      type: DT_FLOAT
    }
  }
}
node {
  name: "vgg19/vgg_model/ReadVariableOp_10"
  op: "ReadVariableOp"
  input: "vgg19/vgg_model/block3_conv2/kernel"
  input: "^vgg19/vgg_model/AssignVariableOp_10"
  attr {
    key: "dtype"
    value {
      type: DT_FLOAT
    }
  }
}
node {
  name: "vgg19/vgg_model/Placeholder_11"
  op: "Placeholder"
  attr {
    key: "dtype"
    value {
      type: DT_FLOAT
    }
  }
  attr {
    key: "shape"
    value {
      shape {
        dim {
          size: 256
        }
      }
    }
  }
}
node {
  name: "vgg19/vgg_model/AssignVariableOp_11"
  op: "AssignVariableOp"
  input: "vgg19/vgg_model/block3_conv2/bias"
  input: "vgg19/vgg_model/Placeholder_11"
  attr {
    key: "dtype"
    value {
      type: DT_FLOAT
    }
  }
}
node {
  name: "vgg19/vgg_model/ReadVariableOp_11"
  op: "ReadVariableOp"
  input: "vgg19/vgg_model/block3_conv2/bias"
  input: "^vgg19/vgg_model/AssignVariableOp_11"
  attr {
    key: "dtype"
    value {
      type: DT_FLOAT
    }
  }
}
node {
  name: "vgg19/vgg_model/Placeholder_12"
  op: "Placeholder"
  attr {
    key: "dtype"
    value {
      type: DT_FLOAT
    }
  }
  attr {
    key: "shape"
    value {
      shape {
        dim {
          size: 3
        }
        dim {
          size: 3
        }
        dim {
          size: 256
        }
        dim {
          size: 256
        }
      }
    }
  }
}
node {
  name: "vgg19/vgg_model/AssignVariableOp_12"
  op: "AssignVariableOp"
  input: "vgg19/vgg_model/block3_conv3/kernel"
  input: "vgg19/vgg_model/Placeholder_12"
  attr {
    key: "dtype"
    value {
      type: DT_FLOAT
    }
  }
}
node {
  name: "vgg19/vgg_model/ReadVariableOp_12"
  op: "ReadVariableOp"
  input: "vgg19/vgg_model/block3_conv3/kernel"
  input: "^vgg19/vgg_model/AssignVariableOp_12"
  attr {
    key: "dtype"
    value {
      type: DT_FLOAT
    }
  }
}
node {
  name: "vgg19/vgg_model/Placeholder_13"
  op: "Placeholder"
  attr {
    key: "dtype"
    value {
      type: DT_FLOAT
    }
  }
  attr {
    key: "shape"
    value {
      shape {
        dim {
          size: 256
        }
      }
    }
  }
}
node {
  name: "vgg19/vgg_model/AssignVariableOp_13"
  op: "AssignVariableOp"
  input: "vgg19/vgg_model/block3_conv3/bias"
  input: "vgg19/vgg_model/Placeholder_13"
  attr {
    key: "dtype"
    value {
      type: DT_FLOAT
    }
  }
}
node {
  name: "vgg19/vgg_model/ReadVariableOp_13"
  op: "ReadVariableOp"
  input: "vgg19/vgg_model/block3_conv3/bias"
  input: "^vgg19/vgg_model/AssignVariableOp_13"
  attr {
    key: "dtype"
    value {
      type: DT_FLOAT
    }
  }
}
node {
  name: "vgg19/vgg_model/Placeholder_14"
  op: "Placeholder"
  attr {
    key: "dtype"
    value {
      type: DT_FLOAT
    }
  }
  attr {
    key: "shape"
    value {
      shape {
        dim {
          size: 3
        }
        dim {
          size: 3
        }
        dim {
          size: 256
        }
        dim {
          size: 256
        }
      }
    }
  }
}
node {
  name: "vgg19/vgg_model/AssignVariableOp_14"
  op: "AssignVariableOp"
  input: "vgg19/vgg_model/block3_conv4/kernel"
  input: "vgg19/vgg_model/Placeholder_14"
  attr {
    key: "dtype"
    value {
      type: DT_FLOAT
    }
  }
}
node {
  name: "vgg19/vgg_model/ReadVariableOp_14"
  op: "ReadVariableOp"
  input: "vgg19/vgg_model/block3_conv4/kernel"
  input: "^vgg19/vgg_model/AssignVariableOp_14"
  attr {
    key: "dtype"
    value {
      type: DT_FLOAT
    }
  }
}
node {
  name: "vgg19/vgg_model/Placeholder_15"
  op: "Placeholder"
  attr {
    key: "dtype"
    value {
      type: DT_FLOAT
    }
  }
  attr {
    key: "shape"
    value {
      shape {
        dim {
          size: 256
        }
      }
    }
  }
}
node {
  name: "vgg19/vgg_model/AssignVariableOp_15"
  op: "AssignVariableOp"
  input: "vgg19/vgg_model/block3_conv4/bias"
  input: "vgg19/vgg_model/Placeholder_15"
  attr {
    key: "dtype"
    value {
      type: DT_FLOAT
    }
  }
}
node {
  name: "vgg19/vgg_model/ReadVariableOp_15"
  op: "ReadVariableOp"
  input: "vgg19/vgg_model/block3_conv4/bias"
  input: "^vgg19/vgg_model/AssignVariableOp_15"
  attr {
    key: "dtype"
    value {
      type: DT_FLOAT
    }
  }
}
node {
  name: "vgg19/vgg_model/Placeholder_16"
  op: "Placeholder"
  attr {
    key: "dtype"
    value {
      type: DT_FLOAT
    }
  }
  attr {
    key: "shape"
    value {
      shape {
        dim {
          size: 3
        }
        dim {
          size: 3
        }
        dim {
          size: 256
        }
        dim {
          size: 512
        }
      }
    }
  }
}
node {
  name: "vgg19/vgg_model/AssignVariableOp_16"
  op: "AssignVariableOp"
  input: "vgg19/vgg_model/block4_conv1/kernel"
  input: "vgg19/vgg_model/Placeholder_16"
  attr {
    key: "dtype"
    value {
      type: DT_FLOAT
    }
  }
}
node {
  name: "vgg19/vgg_model/ReadVariableOp_16"
  op: "ReadVariableOp"
  input: "vgg19/vgg_model/block4_conv1/kernel"
  input: "^vgg19/vgg_model/AssignVariableOp_16"
  attr {
    key: "dtype"
    value {
      type: DT_FLOAT
    }
  }
}
node {
  name: "vgg19/vgg_model/Placeholder_17"
  op: "Placeholder"
  attr {
    key: "dtype"
    value {
      type: DT_FLOAT
    }
  }
  attr {
    key: "shape"
    value {
      shape {
        dim {
          size: 512
        }
      }
    }
  }
}
node {
  name: "vgg19/vgg_model/AssignVariableOp_17"
  op: "AssignVariableOp"
  input: "vgg19/vgg_model/block4_conv1/bias"
  input: "vgg19/vgg_model/Placeholder_17"
  attr {
    key: "dtype"
    value {
      type: DT_FLOAT
    }
  }
}
node {
  name: "vgg19/vgg_model/ReadVariableOp_17"
  op: "ReadVariableOp"
  input: "vgg19/vgg_model/block4_conv1/bias"
  input: "^vgg19/vgg_model/AssignVariableOp_17"
  attr {
    key: "dtype"
    value {
      type: DT_FLOAT
    }
  }
}
node {
  name: "vgg19/vgg_model/Placeholder_18"
  op: "Placeholder"
  attr {
    key: "dtype"
    value {
      type: DT_FLOAT
    }
  }
  attr {
    key: "shape"
    value {
      shape {
        dim {
          size: 3
        }
        dim {
          size: 3
        }
        dim {
          size: 512
        }
        dim {
          size: 512
        }
      }
    }
  }
}
node {
  name: "vgg19/vgg_model/AssignVariableOp_18"
  op: "AssignVariableOp"
  input: "vgg19/vgg_model/block4_conv2/kernel"
  input: "vgg19/vgg_model/Placeholder_18"
  attr {
    key: "dtype"
    value {
      type: DT_FLOAT
    }
  }
}
node {
  name: "vgg19/vgg_model/ReadVariableOp_18"
  op: "ReadVariableOp"
  input: "vgg19/vgg_model/block4_conv2/kernel"
  input: "^vgg19/vgg_model/AssignVariableOp_18"
  attr {
    key: "dtype"
    value {
      type: DT_FLOAT
    }
  }
}
node {
  name: "vgg19/vgg_model/Placeholder_19"
  op: "Placeholder"
  attr {
    key: "dtype"
    value {
      type: DT_FLOAT
    }
  }
  attr {
    key: "shape"
    value {
      shape {
        dim {
          size: 512
        }
      }
    }
  }
}
node {
  name: "vgg19/vgg_model/AssignVariableOp_19"
  op: "AssignVariableOp"
  input: "vgg19/vgg_model/block4_conv2/bias"
  input: "vgg19/vgg_model/Placeholder_19"
  attr {
    key: "dtype"
    value {
      type: DT_FLOAT
    }
  }
}
node {
  name: "vgg19/vgg_model/ReadVariableOp_19"
  op: "ReadVariableOp"
  input: "vgg19/vgg_model/block4_conv2/bias"
  input: "^vgg19/vgg_model/AssignVariableOp_19"
  attr {
    key: "dtype"
    value {
      type: DT_FLOAT
    }
  }
}
node {
  name: "vgg19/vgg_model/Placeholder_20"
  op: "Placeholder"
  attr {
    key: "dtype"
    value {
      type: DT_FLOAT
    }
  }
  attr {
    key: "shape"
    value {
      shape {
        dim {
          size: 3
        }
        dim {
          size: 3
        }
        dim {
          size: 512
        }
        dim {
          size: 512
        }
      }
    }
  }
}
node {
  name: "vgg19/vgg_model/AssignVariableOp_20"
  op: "AssignVariableOp"
  input: "vgg19/vgg_model/block4_conv3/kernel"
  input: "vgg19/vgg_model/Placeholder_20"
  attr {
    key: "dtype"
    value {
      type: DT_FLOAT
    }
  }
}
node {
  name: "vgg19/vgg_model/ReadVariableOp_20"
  op: "ReadVariableOp"
  input: "vgg19/vgg_model/block4_conv3/kernel"
  input: "^vgg19/vgg_model/AssignVariableOp_20"
  attr {
    key: "dtype"
    value {
      type: DT_FLOAT
    }
  }
}
node {
  name: "vgg19/vgg_model/Placeholder_21"
  op: "Placeholder"
  attr {
    key: "dtype"
    value {
      type: DT_FLOAT
    }
  }
  attr {
    key: "shape"
    value {
      shape {
        dim {
          size: 512
        }
      }
    }
  }
}
node {
  name: "vgg19/vgg_model/AssignVariableOp_21"
  op: "AssignVariableOp"
  input: "vgg19/vgg_model/block4_conv3/bias"
  input: "vgg19/vgg_model/Placeholder_21"
  attr {
    key: "dtype"
    value {
      type: DT_FLOAT
    }
  }
}
node {
  name: "vgg19/vgg_model/ReadVariableOp_21"
  op: "ReadVariableOp"
  input: "vgg19/vgg_model/block4_conv3/bias"
  input: "^vgg19/vgg_model/AssignVariableOp_21"
  attr {
    key: "dtype"
    value {
      type: DT_FLOAT
    }
  }
}
node {
  name: "vgg19/vgg_model/Placeholder_22"
  op: "Placeholder"
  attr {
    key: "dtype"
    value {
      type: DT_FLOAT
    }
  }
  attr {
    key: "shape"
    value {
      shape {
        dim {
          size: 3
        }
        dim {
          size: 3
        }
        dim {
          size: 512
        }
        dim {
          size: 512
        }
      }
    }
  }
}
node {
  name: "vgg19/vgg_model/AssignVariableOp_22"
  op: "AssignVariableOp"
  input: "vgg19/vgg_model/block4_conv4/kernel"
  input: "vgg19/vgg_model/Placeholder_22"
  attr {
    key: "dtype"
    value {
      type: DT_FLOAT
    }
  }
}
node {
  name: "vgg19/vgg_model/ReadVariableOp_22"
  op: "ReadVariableOp"
  input: "vgg19/vgg_model/block4_conv4/kernel"
  input: "^vgg19/vgg_model/AssignVariableOp_22"
  attr {
    key: "dtype"
    value {
      type: DT_FLOAT
    }
  }
}
node {
  name: "vgg19/vgg_model/Placeholder_23"
  op: "Placeholder"
  attr {
    key: "dtype"
    value {
      type: DT_FLOAT
    }
  }
  attr {
    key: "shape"
    value {
      shape {
        dim {
          size: 512
        }
      }
    }
  }
}
node {
  name: "vgg19/vgg_model/AssignVariableOp_23"
  op: "AssignVariableOp"
  input: "vgg19/vgg_model/block4_conv4/bias"
  input: "vgg19/vgg_model/Placeholder_23"
  attr {
    key: "dtype"
    value {
      type: DT_FLOAT
    }
  }
}
node {
  name: "vgg19/vgg_model/ReadVariableOp_23"
  op: "ReadVariableOp"
  input: "vgg19/vgg_model/block4_conv4/bias"
  input: "^vgg19/vgg_model/AssignVariableOp_23"
  attr {
    key: "dtype"
    value {
      type: DT_FLOAT
    }
  }
}
node {
  name: "vgg19/vgg_model/Placeholder_24"
  op: "Placeholder"
  attr {
    key: "dtype"
    value {
      type: DT_FLOAT
    }
  }
  attr {
    key: "shape"
    value {
      shape {
        dim {
          size: 3
        }
        dim {
          size: 3
        }
        dim {
          size: 512
        }
        dim {
          size: 512
        }
      }
    }
  }
}
node {
  name: "vgg19/vgg_model/AssignVariableOp_24"
  op: "AssignVariableOp"
  input: "vgg19/vgg_model/block5_conv1/kernel"
  input: "vgg19/vgg_model/Placeholder_24"
  attr {
    key: "dtype"
    value {
      type: DT_FLOAT
    }
  }
}
node {
  name: "vgg19/vgg_model/ReadVariableOp_24"
  op: "ReadVariableOp"
  input: "vgg19/vgg_model/block5_conv1/kernel"
  input: "^vgg19/vgg_model/AssignVariableOp_24"
  attr {
    key: "dtype"
    value {
      type: DT_FLOAT
    }
  }
}
node {
  name: "vgg19/vgg_model/Placeholder_25"
  op: "Placeholder"
  attr {
    key: "dtype"
    value {
      type: DT_FLOAT
    }
  }
  attr {
    key: "shape"
    value {
      shape {
        dim {
          size: 512
        }
      }
    }
  }
}
node {
  name: "vgg19/vgg_model/AssignVariableOp_25"
  op: "AssignVariableOp"
  input: "vgg19/vgg_model/block5_conv1/bias"
  input: "vgg19/vgg_model/Placeholder_25"
  attr {
    key: "dtype"
    value {
      type: DT_FLOAT
    }
  }
}
node {
  name: "vgg19/vgg_model/ReadVariableOp_25"
  op: "ReadVariableOp"
  input: "vgg19/vgg_model/block5_conv1/bias"
  input: "^vgg19/vgg_model/AssignVariableOp_25"
  attr {
    key: "dtype"
    value {
      type: DT_FLOAT
    }
  }
}
node {
  name: "vgg19/vgg_model/Placeholder_26"
  op: "Placeholder"
  attr {
    key: "dtype"
    value {
      type: DT_FLOAT
    }
  }
  attr {
    key: "shape"
    value {
      shape {
        dim {
          size: 3
        }
        dim {
          size: 3
        }
        dim {
          size: 512
        }
        dim {
          size: 512
        }
      }
    }
  }
}
node {
  name: "vgg19/vgg_model/AssignVariableOp_26"
  op: "AssignVariableOp"
  input: "vgg19/vgg_model/block5_conv2/kernel"
  input: "vgg19/vgg_model/Placeholder_26"
  attr {
    key: "dtype"
    value {
      type: DT_FLOAT
    }
  }
}
node {
  name: "vgg19/vgg_model/ReadVariableOp_26"
  op: "ReadVariableOp"
  input: "vgg19/vgg_model/block5_conv2/kernel"
  input: "^vgg19/vgg_model/AssignVariableOp_26"
  attr {
    key: "dtype"
    value {
      type: DT_FLOAT
    }
  }
}
node {
  name: "vgg19/vgg_model/Placeholder_27"
  op: "Placeholder"
  attr {
    key: "dtype"
    value {
      type: DT_FLOAT
    }
  }
  attr {
    key: "shape"
    value {
      shape {
        dim {
          size: 512
        }
      }
    }
  }
}
node {
  name: "vgg19/vgg_model/AssignVariableOp_27"
  op: "AssignVariableOp"
  input: "vgg19/vgg_model/block5_conv2/bias"
  input: "vgg19/vgg_model/Placeholder_27"
  attr {
    key: "dtype"
    value {
      type: DT_FLOAT
    }
  }
}
node {
  name: "vgg19/vgg_model/ReadVariableOp_27"
  op: "ReadVariableOp"
  input: "vgg19/vgg_model/block5_conv2/bias"
  input: "^vgg19/vgg_model/AssignVariableOp_27"
  attr {
    key: "dtype"
    value {
      type: DT_FLOAT
    }
  }
}
node {
  name: "vgg19/vgg_model/Placeholder_28"
  op: "Placeholder"
  attr {
    key: "dtype"
    value {
      type: DT_FLOAT
    }
  }
  attr {
    key: "shape"
    value {
      shape {
        dim {
          size: 3
        }
        dim {
          size: 3
        }
        dim {
          size: 512
        }
        dim {
          size: 512
        }
      }
    }
  }
}
node {
  name: "vgg19/vgg_model/AssignVariableOp_28"
  op: "AssignVariableOp"
  input: "vgg19/vgg_model/block5_conv3/kernel"
  input: "vgg19/vgg_model/Placeholder_28"
  attr {
    key: "dtype"
    value {
      type: DT_FLOAT
    }
  }
}
node {
  name: "vgg19/vgg_model/ReadVariableOp_28"
  op: "ReadVariableOp"
  input: "vgg19/vgg_model/block5_conv3/kernel"
  input: "^vgg19/vgg_model/AssignVariableOp_28"
  attr {
    key: "dtype"
    value {
      type: DT_FLOAT
    }
  }
}
node {
  name: "vgg19/vgg_model/Placeholder_29"
  op: "Placeholder"
  attr {
    key: "dtype"
    value {
      type: DT_FLOAT
    }
  }
  attr {
    key: "shape"
    value {
      shape {
        dim {
          size: 512
        }
      }
    }
  }
}
node {
  name: "vgg19/vgg_model/AssignVariableOp_29"
  op: "AssignVariableOp"
  input: "vgg19/vgg_model/block5_conv3/bias"
  input: "vgg19/vgg_model/Placeholder_29"
  attr {
    key: "dtype"
    value {
      type: DT_FLOAT
    }
  }
}
node {
  name: "vgg19/vgg_model/ReadVariableOp_29"
  op: "ReadVariableOp"
  input: "vgg19/vgg_model/block5_conv3/bias"
  input: "^vgg19/vgg_model/AssignVariableOp_29"
  attr {
    key: "dtype"
    value {
      type: DT_FLOAT
    }
  }
}
node {
  name: "vgg19/vgg_model/Placeholder_30"
  op: "Placeholder"
  attr {
    key: "dtype"
    value {
      type: DT_FLOAT
    }
  }
  attr {
    key: "shape"
    value {
      shape {
        dim {
          size: 3
        }
        dim {
          size: 3
        }
        dim {
          size: 512
        }
        dim {
          size: 512
        }
      }
    }
  }
}
node {
  name: "vgg19/vgg_model/AssignVariableOp_30"
  op: "AssignVariableOp"
  input: "vgg19/vgg_model/block5_conv4/kernel"
  input: "vgg19/vgg_model/Placeholder_30"
  attr {
    key: "dtype"
    value {
      type: DT_FLOAT
    }
  }
}
node {
  name: "vgg19/vgg_model/ReadVariableOp_30"
  op: "ReadVariableOp"
  input: "vgg19/vgg_model/block5_conv4/kernel"
  input: "^vgg19/vgg_model/AssignVariableOp_30"
  attr {
    key: "dtype"
    value {
      type: DT_FLOAT
    }
  }
}
node {
  name: "vgg19/vgg_model/Placeholder_31"
  op: "Placeholder"
  attr {
    key: "dtype"
    value {
      type: DT_FLOAT
    }
  }
  attr {
    key: "shape"
    value {
      shape {
        dim {
          size: 512
        }
      }
    }
  }
}
node {
  name: "vgg19/vgg_model/AssignVariableOp_31"
  op: "AssignVariableOp"
  input: "vgg19/vgg_model/block5_conv4/bias"
  input: "vgg19/vgg_model/Placeholder_31"
  attr {
    key: "dtype"
    value {
      type: DT_FLOAT
    }
  }
}
node {
  name: "vgg19/vgg_model/ReadVariableOp_31"
  op: "ReadVariableOp"
  input: "vgg19/vgg_model/block5_conv4/bias"
  input: "^vgg19/vgg_model/AssignVariableOp_31"
  attr {
    key: "dtype"
    value {
      type: DT_FLOAT
    }
  }
}
node {
  name: "vgg19/vgg_model/IsVariableInitialized"
  op: "IsVariableInitialized"
  input: "gen_img"
  attr {
    key: "_class"
    value {
      list {
        s: "loc:@gen_img"
      }
    }
  }
  attr {
    key: "dtype"
    value {
      type: DT_FLOAT
    }
  }
}
node {
  name: "vgg19/vgg_model/VarIsInitializedOp"
  op: "VarIsInitializedOp"
  input: "vgg19/vgg_model/block1_conv1/kernel"
}
node {
  name: "vgg19/vgg_model/VarIsInitializedOp_1"
  op: "VarIsInitializedOp"
  input: "vgg19/vgg_model/block1_conv1/bias"
}
node {
  name: "vgg19/vgg_model/VarIsInitializedOp_2"
  op: "VarIsInitializedOp"
  input: "vgg19/vgg_model/block1_conv2/kernel"
}
node {
  name: "vgg19/vgg_model/VarIsInitializedOp_3"
  op: "VarIsInitializedOp"
  input: "vgg19/vgg_model/block1_conv2/bias"
}
node {
  name: "vgg19/vgg_model/VarIsInitializedOp_4"
  op: "VarIsInitializedOp"
  input: "vgg19/vgg_model/block2_conv1/kernel"
}
node {
  name: "vgg19/vgg_model/VarIsInitializedOp_5"
  op: "VarIsInitializedOp"
  input: "vgg19/vgg_model/block2_conv1/bias"
}
node {
  name: "vgg19/vgg_model/VarIsInitializedOp_6"
  op: "VarIsInitializedOp"
  input: "vgg19/vgg_model/block2_conv2/kernel"
}
node {
  name: "vgg19/vgg_model/VarIsInitializedOp_7"
  op: "VarIsInitializedOp"
  input: "vgg19/vgg_model/block2_conv2/bias"
}
node {
  name: "vgg19/vgg_model/VarIsInitializedOp_8"
  op: "VarIsInitializedOp"
  input: "vgg19/vgg_model/block3_conv1/kernel"
}
node {
  name: "vgg19/vgg_model/VarIsInitializedOp_9"
  op: "VarIsInitializedOp"
  input: "vgg19/vgg_model/block3_conv1/bias"
}
node {
  name: "vgg19/vgg_model/VarIsInitializedOp_10"
  op: "VarIsInitializedOp"
  input: "vgg19/vgg_model/block3_conv2/kernel"
}
node {
  name: "vgg19/vgg_model/VarIsInitializedOp_11"
  op: "VarIsInitializedOp"
  input: "vgg19/vgg_model/block3_conv2/bias"
}
node {
  name: "vgg19/vgg_model/VarIsInitializedOp_12"
  op: "VarIsInitializedOp"
  input: "vgg19/vgg_model/block3_conv3/kernel"
}
node {
  name: "vgg19/vgg_model/VarIsInitializedOp_13"
  op: "VarIsInitializedOp"
  input: "vgg19/vgg_model/block3_conv3/bias"
}
node {
  name: "vgg19/vgg_model/VarIsInitializedOp_14"
  op: "VarIsInitializedOp"
  input: "vgg19/vgg_model/block3_conv4/kernel"
}
node {
  name: "vgg19/vgg_model/VarIsInitializedOp_15"
  op: "VarIsInitializedOp"
  input: "vgg19/vgg_model/block3_conv4/bias"
}
node {
  name: "vgg19/vgg_model/VarIsInitializedOp_16"
  op: "VarIsInitializedOp"
  input: "vgg19/vgg_model/block4_conv1/kernel"
}
node {
  name: "vgg19/vgg_model/VarIsInitializedOp_17"
  op: "VarIsInitializedOp"
  input: "vgg19/vgg_model/block4_conv1/bias"
}
node {
  name: "vgg19/vgg_model/VarIsInitializedOp_18"
  op: "VarIsInitializedOp"
  input: "vgg19/vgg_model/block4_conv2/kernel"
}
node {
  name: "vgg19/vgg_model/VarIsInitializedOp_19"
  op: "VarIsInitializedOp"
  input: "vgg19/vgg_model/block4_conv2/bias"
}
node {
  name: "vgg19/vgg_model/VarIsInitializedOp_20"
  op: "VarIsInitializedOp"
  input: "vgg19/vgg_model/block4_conv3/kernel"
}
node {
  name: "vgg19/vgg_model/VarIsInitializedOp_21"
  op: "VarIsInitializedOp"
  input: "vgg19/vgg_model/block4_conv3/bias"
}
node {
  name: "vgg19/vgg_model/VarIsInitializedOp_22"
  op: "VarIsInitializedOp"
  input: "vgg19/vgg_model/block4_conv4/kernel"
}
node {
  name: "vgg19/vgg_model/VarIsInitializedOp_23"
  op: "VarIsInitializedOp"
  input: "vgg19/vgg_model/block4_conv4/bias"
}
node {
  name: "vgg19/vgg_model/VarIsInitializedOp_24"
  op: "VarIsInitializedOp"
  input: "vgg19/vgg_model/block5_conv1/kernel"
}
node {
  name: "vgg19/vgg_model/VarIsInitializedOp_25"
  op: "VarIsInitializedOp"
  input: "vgg19/vgg_model/block5_conv1/bias"
}
node {
  name: "vgg19/vgg_model/VarIsInitializedOp_26"
  op: "VarIsInitializedOp"
  input: "vgg19/vgg_model/block5_conv2/kernel"
}
node {
  name: "vgg19/vgg_model/VarIsInitializedOp_27"
  op: "VarIsInitializedOp"
  input: "vgg19/vgg_model/block5_conv2/bias"
}
node {
  name: "vgg19/vgg_model/VarIsInitializedOp_28"
  op: "VarIsInitializedOp"
  input: "vgg19/vgg_model/block5_conv3/kernel"
}
node {
  name: "vgg19/vgg_model/VarIsInitializedOp_29"
  op: "VarIsInitializedOp"
  input: "vgg19/vgg_model/block5_conv3/bias"
}
node {
  name: "vgg19/vgg_model/VarIsInitializedOp_30"
  op: "VarIsInitializedOp"
  input: "vgg19/vgg_model/block5_conv4/kernel"
}
node {
  name: "vgg19/vgg_model/VarIsInitializedOp_31"
  op: "VarIsInitializedOp"
  input: "vgg19/vgg_model/block5_conv4/bias"
}
node {
  name: "vgg19/vgg_model/init"
  op: "NoOp"
  input: "^gen_img/Assign"
  input: "^vgg19/vgg_model/block1_conv1/bias/Assign"
  input: "^vgg19/vgg_model/block1_conv1/kernel/Assign"
  input: "^vgg19/vgg_model/block1_conv2/bias/Assign"
  input: "^vgg19/vgg_model/block1_conv2/kernel/Assign"
  input: "^vgg19/vgg_model/block2_conv1/bias/Assign"
  input: "^vgg19/vgg_model/block2_conv1/kernel/Assign"
  input: "^vgg19/vgg_model/block2_conv2/bias/Assign"
  input: "^vgg19/vgg_model/block2_conv2/kernel/Assign"
  input: "^vgg19/vgg_model/block3_conv1/bias/Assign"
  input: "^vgg19/vgg_model/block3_conv1/kernel/Assign"
  input: "^vgg19/vgg_model/block3_conv2/bias/Assign"
  input: "^vgg19/vgg_model/block3_conv2/kernel/Assign"
  input: "^vgg19/vgg_model/block3_conv3/bias/Assign"
  input: "^vgg19/vgg_model/block3_conv3/kernel/Assign"
  input: "^vgg19/vgg_model/block3_conv4/bias/Assign"
  input: "^vgg19/vgg_model/block3_conv4/kernel/Assign"
  input: "^vgg19/vgg_model/block4_conv1/bias/Assign"
  input: "^vgg19/vgg_model/block4_conv1/kernel/Assign"
  input: "^vgg19/vgg_model/block4_conv2/bias/Assign"
  input: "^vgg19/vgg_model/block4_conv2/kernel/Assign"
  input: "^vgg19/vgg_model/block4_conv3/bias/Assign"
  input: "^vgg19/vgg_model/block4_conv3/kernel/Assign"
  input: "^vgg19/vgg_model/block4_conv4/bias/Assign"
  input: "^vgg19/vgg_model/block4_conv4/kernel/Assign"
  input: "^vgg19/vgg_model/block5_conv1/bias/Assign"
  input: "^vgg19/vgg_model/block5_conv1/kernel/Assign"
  input: "^vgg19/vgg_model/block5_conv2/bias/Assign"
  input: "^vgg19/vgg_model/block5_conv2/kernel/Assign"
  input: "^vgg19/vgg_model/block5_conv3/bias/Assign"
  input: "^vgg19/vgg_model/block5_conv3/kernel/Assign"
  input: "^vgg19/vgg_model/block5_conv4/bias/Assign"
  input: "^vgg19/vgg_model/block5_conv4/kernel/Assign"
}
node {
  name: "vgg19/save/Const"
  op: "Const"
  attr {
    key: "dtype"
    value {
      type: DT_STRING
    }
  }
  attr {
    key: "value"
    value {
      tensor {
        dtype: DT_STRING
        tensor_shape {
        }
        string_val: "model"
      }
    }
  }
}
node {
  name: "vgg19/save/SaveV2/tensor_names"
  op: "Const"
  attr {
    key: "dtype"
    value {
      type: DT_STRING
    }
  }
  attr {
    key: "value"
    value {
      tensor {
        dtype: DT_STRING
        tensor_shape {
          dim {
            size: 32
          }
        }
        string_val: "vgg19/vgg_model/block1_conv1/bias"
        string_val: "vgg19/vgg_model/block1_conv1/kernel"
        string_val: "vgg19/vgg_model/block1_conv2/bias"
        string_val: "vgg19/vgg_model/block1_conv2/kernel"
        string_val: "vgg19/vgg_model/block2_conv1/bias"
        string_val: "vgg19/vgg_model/block2_conv1/kernel"
        string_val: "vgg19/vgg_model/block2_conv2/bias"
        string_val: "vgg19/vgg_model/block2_conv2/kernel"
        string_val: "vgg19/vgg_model/block3_conv1/bias"
        string_val: "vgg19/vgg_model/block3_conv1/kernel"
        string_val: "vgg19/vgg_model/block3_conv2/bias"
        string_val: "vgg19/vgg_model/block3_conv2/kernel"
        string_val: "vgg19/vgg_model/block3_conv3/bias"
        string_val: "vgg19/vgg_model/block3_conv3/kernel"
        string_val: "vgg19/vgg_model/block3_conv4/bias"
        string_val: "vgg19/vgg_model/block3_conv4/kernel"
        string_val: "vgg19/vgg_model/block4_conv1/bias"
        string_val: "vgg19/vgg_model/block4_conv1/kernel"
        string_val: "vgg19/vgg_model/block4_conv2/bias"
        string_val: "vgg19/vgg_model/block4_conv2/kernel"
        string_val: "vgg19/vgg_model/block4_conv3/bias"
        string_val: "vgg19/vgg_model/block4_conv3/kernel"
        string_val: "vgg19/vgg_model/block4_conv4/bias"
        string_val: "vgg19/vgg_model/block4_conv4/kernel"
        string_val: "vgg19/vgg_model/block5_conv1/bias"
        string_val: "vgg19/vgg_model/block5_conv1/kernel"
        string_val: "vgg19/vgg_model/block5_conv2/bias"
        string_val: "vgg19/vgg_model/block5_conv2/kernel"
        string_val: "vgg19/vgg_model/block5_conv3/bias"
        string_val: "vgg19/vgg_model/block5_conv3/kernel"
        string_val: "vgg19/vgg_model/block5_conv4/bias"
        string_val: "vgg19/vgg_model/block5_conv4/kernel"
      }
    }
  }
}
node {
  name: "vgg19/save/SaveV2/shape_and_slices"
  op: "Const"
  attr {
    key: "dtype"
    value {
      type: DT_STRING
    }
  }
  attr {
    key: "value"
    value {
      tensor {
        dtype: DT_STRING
        tensor_shape {
          dim {
            size: 32
          }
        }
        string_val: ""
        string_val: ""
        string_val: ""
        string_val: ""
        string_val: ""
        string_val: ""
        string_val: ""
        string_val: ""
        string_val: ""
        string_val: ""
        string_val: ""
        string_val: ""
        string_val: ""
        string_val: ""
        string_val: ""
        string_val: ""
        string_val: ""
        string_val: ""
        string_val: ""
        string_val: ""
        string_val: ""
        string_val: ""
        string_val: ""
        string_val: ""
        string_val: ""
        string_val: ""
        string_val: ""
        string_val: ""
        string_val: ""
        string_val: ""
        string_val: ""
        string_val: ""
      }
    }
  }
}
node {
  name: "vgg19/save/SaveV2"
  op: "SaveV2"
  input: "vgg19/save/Const"
  input: "vgg19/save/SaveV2/tensor_names"
  input: "vgg19/save/SaveV2/shape_and_slices"
  input: "vgg19/vgg_model/block1_conv1/bias/Read/ReadVariableOp"
  input: "vgg19/vgg_model/block1_conv1/kernel/Read/ReadVariableOp"
  input: "vgg19/vgg_model/block1_conv2/bias/Read/ReadVariableOp"
  input: "vgg19/vgg_model/block1_conv2/kernel/Read/ReadVariableOp"
  input: "vgg19/vgg_model/block2_conv1/bias/Read/ReadVariableOp"
  input: "vgg19/vgg_model/block2_conv1/kernel/Read/ReadVariableOp"
  input: "vgg19/vgg_model/block2_conv2/bias/Read/ReadVariableOp"
  input: "vgg19/vgg_model/block2_conv2/kernel/Read/ReadVariableOp"
  input: "vgg19/vgg_model/block3_conv1/bias/Read/ReadVariableOp"
  input: "vgg19/vgg_model/block3_conv1/kernel/Read/ReadVariableOp"
  input: "vgg19/vgg_model/block3_conv2/bias/Read/ReadVariableOp"
  input: "vgg19/vgg_model/block3_conv2/kernel/Read/ReadVariableOp"
  input: "vgg19/vgg_model/block3_conv3/bias/Read/ReadVariableOp"
  input: "vgg19/vgg_model/block3_conv3/kernel/Read/ReadVariableOp"
  input: "vgg19/vgg_model/block3_conv4/bias/Read/ReadVariableOp"
  input: "vgg19/vgg_model/block3_conv4/kernel/Read/ReadVariableOp"
  input: "vgg19/vgg_model/block4_conv1/bias/Read/ReadVariableOp"
  input: "vgg19/vgg_model/block4_conv1/kernel/Read/ReadVariableOp"
  input: "vgg19/vgg_model/block4_conv2/bias/Read/ReadVariableOp"
  input: "vgg19/vgg_model/block4_conv2/kernel/Read/ReadVariableOp"
  input: "vgg19/vgg_model/block4_conv3/bias/Read/ReadVariableOp"
  input: "vgg19/vgg_model/block4_conv3/kernel/Read/ReadVariableOp"
  input: "vgg19/vgg_model/block4_conv4/bias/Read/ReadVariableOp"
  input: "vgg19/vgg_model/block4_conv4/kernel/Read/ReadVariableOp"
  input: "vgg19/vgg_model/block5_conv1/bias/Read/ReadVariableOp"
  input: "vgg19/vgg_model/block5_conv1/kernel/Read/ReadVariableOp"
  input: "vgg19/vgg_model/block5_conv2/bias/Read/ReadVariableOp"
  input: "vgg19/vgg_model/block5_conv2/kernel/Read/ReadVariableOp"
  input: "vgg19/vgg_model/block5_conv3/bias/Read/ReadVariableOp"
  input: "vgg19/vgg_model/block5_conv3/kernel/Read/ReadVariableOp"
  input: "vgg19/vgg_model/block5_conv4/bias/Read/ReadVariableOp"
  input: "vgg19/vgg_model/block5_conv4/kernel/Read/ReadVariableOp"
  attr {
    key: "dtypes"
    value {
      list {
        type: DT_FLOAT
        type: DT_FLOAT
        type: DT_FLOAT
        type: DT_FLOAT
        type: DT_FLOAT
        type: DT_FLOAT
        type: DT_FLOAT
        type: DT_FLOAT
        type: DT_FLOAT
        type: DT_FLOAT
        type: DT_FLOAT
        type: DT_FLOAT
        type: DT_FLOAT
        type: DT_FLOAT
        type: DT_FLOAT
        type: DT_FLOAT
        type: DT_FLOAT
        type: DT_FLOAT
        type: DT_FLOAT
        type: DT_FLOAT
        type: DT_FLOAT
        type: DT_FLOAT
        type: DT_FLOAT
        type: DT_FLOAT
        type: DT_FLOAT
        type: DT_FLOAT
        type: DT_FLOAT
        type: DT_FLOAT
        type: DT_FLOAT
        type: DT_FLOAT
        type: DT_FLOAT
        type: DT_FLOAT
      }
    }
  }
}
node {
  name: "vgg19/save/control_dependency"
  op: "Identity"
  input: "vgg19/save/Const"
  input: "^vgg19/save/SaveV2"
  attr {
    key: "T"
    value {
      type: DT_STRING
    }
  }
  attr {
    key: "_class"
    value {
      list {
        s: "loc:@vgg19/save/Const"
      }
    }
  }
}
node {
  name: "vgg19/save/RestoreV2/tensor_names"
  op: "Const"
  device: "/device:CPU:0"
  attr {
    key: "dtype"
    value {
      type: DT_STRING
    }
  }
  attr {
    key: "value"
    value {
      tensor {
        dtype: DT_STRING
        tensor_shape {
          dim {
            size: 32
          }
        }
        string_val: "vgg19/vgg_model/block1_conv1/bias"
        string_val: "vgg19/vgg_model/block1_conv1/kernel"
        string_val: "vgg19/vgg_model/block1_conv2/bias"
        string_val: "vgg19/vgg_model/block1_conv2/kernel"
        string_val: "vgg19/vgg_model/block2_conv1/bias"
        string_val: "vgg19/vgg_model/block2_conv1/kernel"
        string_val: "vgg19/vgg_model/block2_conv2/bias"
        string_val: "vgg19/vgg_model/block2_conv2/kernel"
        string_val: "vgg19/vgg_model/block3_conv1/bias"
        string_val: "vgg19/vgg_model/block3_conv1/kernel"
        string_val: "vgg19/vgg_model/block3_conv2/bias"
        string_val: "vgg19/vgg_model/block3_conv2/kernel"
        string_val: "vgg19/vgg_model/block3_conv3/bias"
        string_val: "vgg19/vgg_model/block3_conv3/kernel"
        string_val: "vgg19/vgg_model/block3_conv4/bias"
        string_val: "vgg19/vgg_model/block3_conv4/kernel"
        string_val: "vgg19/vgg_model/block4_conv1/bias"
        string_val: "vgg19/vgg_model/block4_conv1/kernel"
        string_val: "vgg19/vgg_model/block4_conv2/bias"
        string_val: "vgg19/vgg_model/block4_conv2/kernel"
        string_val: "vgg19/vgg_model/block4_conv3/bias"
        string_val: "vgg19/vgg_model/block4_conv3/kernel"
        string_val: "vgg19/vgg_model/block4_conv4/bias"
        string_val: "vgg19/vgg_model/block4_conv4/kernel"
        string_val: "vgg19/vgg_model/block5_conv1/bias"
        string_val: "vgg19/vgg_model/block5_conv1/kernel"
        string_val: "vgg19/vgg_model/block5_conv2/bias"
        string_val: "vgg19/vgg_model/block5_conv2/kernel"
        string_val: "vgg19/vgg_model/block5_conv3/bias"
        string_val: "vgg19/vgg_model/block5_conv3/kernel"
        string_val: "vgg19/vgg_model/block5_conv4/bias"
        string_val: "vgg19/vgg_model/block5_conv4/kernel"
      }
    }
  }
}
node {
  name: "vgg19/save/RestoreV2/shape_and_slices"
  op: "Const"
  device: "/device:CPU:0"
  attr {
    key: "dtype"
    value {
      type: DT_STRING
    }
  }
  attr {
    key: "value"
    value {
      tensor {
        dtype: DT_STRING
        tensor_shape {
          dim {
            size: 32
          }
        }
        string_val: ""
        string_val: ""
        string_val: ""
        string_val: ""
        string_val: ""
        string_val: ""
        string_val: ""
        string_val: ""
        string_val: ""
        string_val: ""
        string_val: ""
        string_val: ""
        string_val: ""
        string_val: ""
        string_val: ""
        string_val: ""
        string_val: ""
        string_val: ""
        string_val: ""
        string_val: ""
        string_val: ""
        string_val: ""
        string_val: ""
        string_val: ""
        string_val: ""
        string_val: ""
        string_val: ""
        string_val: ""
        string_val: ""
        string_val: ""
        string_val: ""
        string_val: ""
      }
    }
  }
}
node {
  name: "vgg19/save/RestoreV2"
  op: "RestoreV2"
  input: "vgg19/save/Const"
  input: "vgg19/save/RestoreV2/tensor_names"
  input: "vgg19/save/RestoreV2/shape_and_slices"
  device: "/device:CPU:0"
  attr {
    key: "dtypes"
    value {
      list {
        type: DT_FLOAT
        type: DT_FLOAT
        type: DT_FLOAT
        type: DT_FLOAT
        type: DT_FLOAT
        type: DT_FLOAT
        type: DT_FLOAT
        type: DT_FLOAT
        type: DT_FLOAT
        type: DT_FLOAT
        type: DT_FLOAT
        type: DT_FLOAT
        type: DT_FLOAT
        type: DT_FLOAT
        type: DT_FLOAT
        type: DT_FLOAT
        type: DT_FLOAT
        type: DT_FLOAT
        type: DT_FLOAT
        type: DT_FLOAT
        type: DT_FLOAT
        type: DT_FLOAT
        type: DT_FLOAT
        type: DT_FLOAT
        type: DT_FLOAT
        type: DT_FLOAT
        type: DT_FLOAT
        type: DT_FLOAT
        type: DT_FLOAT
        type: DT_FLOAT
        type: DT_FLOAT
        type: DT_FLOAT
      }
    }
  }
}
node {
  name: "vgg19/save/Identity"
  op: "Identity"
  input: "vgg19/save/RestoreV2"
  attr {
    key: "T"
    value {
      type: DT_FLOAT
    }
  }
}
node {
  name: "vgg19/save/AssignVariableOp"
  op: "AssignVariableOp"
  input: "vgg19/vgg_model/block1_conv1/bias"
  input: "vgg19/save/Identity"
  attr {
    key: "dtype"
    value {
      type: DT_FLOAT
    }
  }
}
node {
  name: "vgg19/save/Identity_1"
  op: "Identity"
  input: "vgg19/save/RestoreV2:1"
  attr {
    key: "T"
    value {
      type: DT_FLOAT
    }
  }
}
node {
  name: "vgg19/save/AssignVariableOp_1"
  op: "AssignVariableOp"
  input: "vgg19/vgg_model/block1_conv1/kernel"
  input: "vgg19/save/Identity_1"
  attr {
    key: "dtype"
    value {
      type: DT_FLOAT
    }
  }
}
node {
  name: "vgg19/save/Identity_2"
  op: "Identity"
  input: "vgg19/save/RestoreV2:2"
  attr {
    key: "T"
    value {
      type: DT_FLOAT
    }
  }
}
node {
  name: "vgg19/save/AssignVariableOp_2"
  op: "AssignVariableOp"
  input: "vgg19/vgg_model/block1_conv2/bias"
  input: "vgg19/save/Identity_2"
  attr {
    key: "dtype"
    value {
      type: DT_FLOAT
    }
  }
}
node {
  name: "vgg19/save/Identity_3"
  op: "Identity"
  input: "vgg19/save/RestoreV2:3"
  attr {
    key: "T"
    value {
      type: DT_FLOAT
    }
  }
}
node {
  name: "vgg19/save/AssignVariableOp_3"
  op: "AssignVariableOp"
  input: "vgg19/vgg_model/block1_conv2/kernel"
  input: "vgg19/save/Identity_3"
  attr {
    key: "dtype"
    value {
      type: DT_FLOAT
    }
  }
}
node {
  name: "vgg19/save/Identity_4"
  op: "Identity"
  input: "vgg19/save/RestoreV2:4"
  attr {
    key: "T"
    value {
      type: DT_FLOAT
    }
  }
}
node {
  name: "vgg19/save/AssignVariableOp_4"
  op: "AssignVariableOp"
  input: "vgg19/vgg_model/block2_conv1/bias"
  input: "vgg19/save/Identity_4"
  attr {
    key: "dtype"
    value {
      type: DT_FLOAT
    }
  }
}
node {
  name: "vgg19/save/Identity_5"
  op: "Identity"
  input: "vgg19/save/RestoreV2:5"
  attr {
    key: "T"
    value {
      type: DT_FLOAT
    }
  }
}
node {
  name: "vgg19/save/AssignVariableOp_5"
  op: "AssignVariableOp"
  input: "vgg19/vgg_model/block2_conv1/kernel"
  input: "vgg19/save/Identity_5"
  attr {
    key: "dtype"
    value {
      type: DT_FLOAT
    }
  }
}
node {
  name: "vgg19/save/Identity_6"
  op: "Identity"
  input: "vgg19/save/RestoreV2:6"
  attr {
    key: "T"
    value {
      type: DT_FLOAT
    }
  }
}
node {
  name: "vgg19/save/AssignVariableOp_6"
  op: "AssignVariableOp"
  input: "vgg19/vgg_model/block2_conv2/bias"
  input: "vgg19/save/Identity_6"
  attr {
    key: "dtype"
    value {
      type: DT_FLOAT
    }
  }
}
node {
  name: "vgg19/save/Identity_7"
  op: "Identity"
  input: "vgg19/save/RestoreV2:7"
  attr {
    key: "T"
    value {
      type: DT_FLOAT
    }
  }
}
node {
  name: "vgg19/save/AssignVariableOp_7"
  op: "AssignVariableOp"
  input: "vgg19/vgg_model/block2_conv2/kernel"
  input: "vgg19/save/Identity_7"
  attr {
    key: "dtype"
    value {
      type: DT_FLOAT
    }
  }
}
node {
  name: "vgg19/save/Identity_8"
  op: "Identity"
  input: "vgg19/save/RestoreV2:8"
  attr {
    key: "T"
    value {
      type: DT_FLOAT
    }
  }
}
node {
  name: "vgg19/save/AssignVariableOp_8"
  op: "AssignVariableOp"
  input: "vgg19/vgg_model/block3_conv1/bias"
  input: "vgg19/save/Identity_8"
  attr {
    key: "dtype"
    value {
      type: DT_FLOAT
    }
  }
}
node {
  name: "vgg19/save/Identity_9"
  op: "Identity"
  input: "vgg19/save/RestoreV2:9"
  attr {
    key: "T"
    value {
      type: DT_FLOAT
    }
  }
}
node {
  name: "vgg19/save/AssignVariableOp_9"
  op: "AssignVariableOp"
  input: "vgg19/vgg_model/block3_conv1/kernel"
  input: "vgg19/save/Identity_9"
  attr {
    key: "dtype"
    value {
      type: DT_FLOAT
    }
  }
}
node {
  name: "vgg19/save/Identity_10"
  op: "Identity"
  input: "vgg19/save/RestoreV2:10"
  attr {
    key: "T"
    value {
      type: DT_FLOAT
    }
  }
}
node {
  name: "vgg19/save/AssignVariableOp_10"
  op: "AssignVariableOp"
  input: "vgg19/vgg_model/block3_conv2/bias"
  input: "vgg19/save/Identity_10"
  attr {
    key: "dtype"
    value {
      type: DT_FLOAT
    }
  }
}
node {
  name: "vgg19/save/Identity_11"
  op: "Identity"
  input: "vgg19/save/RestoreV2:11"
  attr {
    key: "T"
    value {
      type: DT_FLOAT
    }
  }
}
node {
  name: "vgg19/save/AssignVariableOp_11"
  op: "AssignVariableOp"
  input: "vgg19/vgg_model/block3_conv2/kernel"
  input: "vgg19/save/Identity_11"
  attr {
    key: "dtype"
    value {
      type: DT_FLOAT
    }
  }
}
node {
  name: "vgg19/save/Identity_12"
  op: "Identity"
  input: "vgg19/save/RestoreV2:12"
  attr {
    key: "T"
    value {
      type: DT_FLOAT
    }
  }
}
node {
  name: "vgg19/save/AssignVariableOp_12"
  op: "AssignVariableOp"
  input: "vgg19/vgg_model/block3_conv3/bias"
  input: "vgg19/save/Identity_12"
  attr {
    key: "dtype"
    value {
      type: DT_FLOAT
    }
  }
}
node {
  name: "vgg19/save/Identity_13"
  op: "Identity"
  input: "vgg19/save/RestoreV2:13"
  attr {
    key: "T"
    value {
      type: DT_FLOAT
    }
  }
}
node {
  name: "vgg19/save/AssignVariableOp_13"
  op: "AssignVariableOp"
  input: "vgg19/vgg_model/block3_conv3/kernel"
  input: "vgg19/save/Identity_13"
  attr {
    key: "dtype"
    value {
      type: DT_FLOAT
    }
  }
}
node {
  name: "vgg19/save/Identity_14"
  op: "Identity"
  input: "vgg19/save/RestoreV2:14"
  attr {
    key: "T"
    value {
      type: DT_FLOAT
    }
  }
}
node {
  name: "vgg19/save/AssignVariableOp_14"
  op: "AssignVariableOp"
  input: "vgg19/vgg_model/block3_conv4/bias"
  input: "vgg19/save/Identity_14"
  attr {
    key: "dtype"
    value {
      type: DT_FLOAT
    }
  }
}
node {
  name: "vgg19/save/Identity_15"
  op: "Identity"
  input: "vgg19/save/RestoreV2:15"
  attr {
    key: "T"
    value {
      type: DT_FLOAT
    }
  }
}
node {
  name: "vgg19/save/AssignVariableOp_15"
  op: "AssignVariableOp"
  input: "vgg19/vgg_model/block3_conv4/kernel"
  input: "vgg19/save/Identity_15"
  attr {
    key: "dtype"
    value {
      type: DT_FLOAT
    }
  }
}
node {
  name: "vgg19/save/Identity_16"
  op: "Identity"
  input: "vgg19/save/RestoreV2:16"
  attr {
    key: "T"
    value {
      type: DT_FLOAT
    }
  }
}
node {
  name: "vgg19/save/AssignVariableOp_16"
  op: "AssignVariableOp"
  input: "vgg19/vgg_model/block4_conv1/bias"
  input: "vgg19/save/Identity_16"
  attr {
    key: "dtype"
    value {
      type: DT_FLOAT
    }
  }
}
node {
  name: "vgg19/save/Identity_17"
  op: "Identity"
  input: "vgg19/save/RestoreV2:17"
  attr {
    key: "T"
    value {
      type: DT_FLOAT
    }
  }
}
node {
  name: "vgg19/save/AssignVariableOp_17"
  op: "AssignVariableOp"
  input: "vgg19/vgg_model/block4_conv1/kernel"
  input: "vgg19/save/Identity_17"
  attr {
    key: "dtype"
    value {
      type: DT_FLOAT
    }
  }
}
node {
  name: "vgg19/save/Identity_18"
  op: "Identity"
  input: "vgg19/save/RestoreV2:18"
  attr {
    key: "T"
    value {
      type: DT_FLOAT
    }
  }
}
node {
  name: "vgg19/save/AssignVariableOp_18"
  op: "AssignVariableOp"
  input: "vgg19/vgg_model/block4_conv2/bias"
  input: "vgg19/save/Identity_18"
  attr {
    key: "dtype"
    value {
      type: DT_FLOAT
    }
  }
}
node {
  name: "vgg19/save/Identity_19"
  op: "Identity"
  input: "vgg19/save/RestoreV2:19"
  attr {
    key: "T"
    value {
      type: DT_FLOAT
    }
  }
}
node {
  name: "vgg19/save/AssignVariableOp_19"
  op: "AssignVariableOp"
  input: "vgg19/vgg_model/block4_conv2/kernel"
  input: "vgg19/save/Identity_19"
  attr {
    key: "dtype"
    value {
      type: DT_FLOAT
    }
  }
}
node {
  name: "vgg19/save/Identity_20"
  op: "Identity"
  input: "vgg19/save/RestoreV2:20"
  attr {
    key: "T"
    value {
      type: DT_FLOAT
    }
  }
}
node {
  name: "vgg19/save/AssignVariableOp_20"
  op: "AssignVariableOp"
  input: "vgg19/vgg_model/block4_conv3/bias"
  input: "vgg19/save/Identity_20"
  attr {
    key: "dtype"
    value {
      type: DT_FLOAT
    }
  }
}
node {
  name: "vgg19/save/Identity_21"
  op: "Identity"
  input: "vgg19/save/RestoreV2:21"
  attr {
    key: "T"
    value {
      type: DT_FLOAT
    }
  }
}
node {
  name: "vgg19/save/AssignVariableOp_21"
  op: "AssignVariableOp"
  input: "vgg19/vgg_model/block4_conv3/kernel"
  input: "vgg19/save/Identity_21"
  attr {
    key: "dtype"
    value {
      type: DT_FLOAT
    }
  }
}
node {
  name: "vgg19/save/Identity_22"
  op: "Identity"
  input: "vgg19/save/RestoreV2:22"
  attr {
    key: "T"
    value {
      type: DT_FLOAT
    }
  }
}
node {
  name: "vgg19/save/AssignVariableOp_22"
  op: "AssignVariableOp"
  input: "vgg19/vgg_model/block4_conv4/bias"
  input: "vgg19/save/Identity_22"
  attr {
    key: "dtype"
    value {
      type: DT_FLOAT
    }
  }
}
node {
  name: "vgg19/save/Identity_23"
  op: "Identity"
  input: "vgg19/save/RestoreV2:23"
  attr {
    key: "T"
    value {
      type: DT_FLOAT
    }
  }
}
node {
  name: "vgg19/save/AssignVariableOp_23"
  op: "AssignVariableOp"
  input: "vgg19/vgg_model/block4_conv4/kernel"
  input: "vgg19/save/Identity_23"
  attr {
    key: "dtype"
    value {
      type: DT_FLOAT
    }
  }
}
node {
  name: "vgg19/save/Identity_24"
  op: "Identity"
  input: "vgg19/save/RestoreV2:24"
  attr {
    key: "T"
    value {
      type: DT_FLOAT
    }
  }
}
node {
  name: "vgg19/save/AssignVariableOp_24"
  op: "AssignVariableOp"
  input: "vgg19/vgg_model/block5_conv1/bias"
  input: "vgg19/save/Identity_24"
  attr {
    key: "dtype"
    value {
      type: DT_FLOAT
    }
  }
}
node {
  name: "vgg19/save/Identity_25"
  op: "Identity"
  input: "vgg19/save/RestoreV2:25"
  attr {
    key: "T"
    value {
      type: DT_FLOAT
    }
  }
}
node {
  name: "vgg19/save/AssignVariableOp_25"
  op: "AssignVariableOp"
  input: "vgg19/vgg_model/block5_conv1/kernel"
  input: "vgg19/save/Identity_25"
  attr {
    key: "dtype"
    value {
      type: DT_FLOAT
    }
  }
}
node {
  name: "vgg19/save/Identity_26"
  op: "Identity"
  input: "vgg19/save/RestoreV2:26"
  attr {
    key: "T"
    value {
      type: DT_FLOAT
    }
  }
}
node {
  name: "vgg19/save/AssignVariableOp_26"
  op: "AssignVariableOp"
  input: "vgg19/vgg_model/block5_conv2/bias"
  input: "vgg19/save/Identity_26"
  attr {
    key: "dtype"
    value {
      type: DT_FLOAT
    }
  }
}
node {
  name: "vgg19/save/Identity_27"
  op: "Identity"
  input: "vgg19/save/RestoreV2:27"
  attr {
    key: "T"
    value {
      type: DT_FLOAT
    }
  }
}
node {
  name: "vgg19/save/AssignVariableOp_27"
  op: "AssignVariableOp"
  input: "vgg19/vgg_model/block5_conv2/kernel"
  input: "vgg19/save/Identity_27"
  attr {
    key: "dtype"
    value {
      type: DT_FLOAT
    }
  }
}
node {
  name: "vgg19/save/Identity_28"
  op: "Identity"
  input: "vgg19/save/RestoreV2:28"
  attr {
    key: "T"
    value {
      type: DT_FLOAT
    }
  }
}
node {
  name: "vgg19/save/AssignVariableOp_28"
  op: "AssignVariableOp"
  input: "vgg19/vgg_model/block5_conv3/bias"
  input: "vgg19/save/Identity_28"
  attr {
    key: "dtype"
    value {
      type: DT_FLOAT
    }
  }
}
node {
  name: "vgg19/save/Identity_29"
  op: "Identity"
  input: "vgg19/save/RestoreV2:29"
  attr {
    key: "T"
    value {
      type: DT_FLOAT
    }
  }
}
node {
  name: "vgg19/save/AssignVariableOp_29"
  op: "AssignVariableOp"
  input: "vgg19/vgg_model/block5_conv3/kernel"
  input: "vgg19/save/Identity_29"
  attr {
    key: "dtype"
    value {
      type: DT_FLOAT
    }
  }
}
node {
  name: "vgg19/save/Identity_30"
  op: "Identity"
  input: "vgg19/save/RestoreV2:30"
  attr {
    key: "T"
    value {
      type: DT_FLOAT
    }
  }
}
node {
  name: "vgg19/save/AssignVariableOp_30"
  op: "AssignVariableOp"
  input: "vgg19/vgg_model/block5_conv4/bias"
  input: "vgg19/save/Identity_30"
  attr {
    key: "dtype"
    value {
      type: DT_FLOAT
    }
  }
}
node {
  name: "vgg19/save/Identity_31"
  op: "Identity"
  input: "vgg19/save/RestoreV2:31"
  attr {
    key: "T"
    value {
      type: DT_FLOAT
    }
  }
}
node {
  name: "vgg19/save/AssignVariableOp_31"
  op: "AssignVariableOp"
  input: "vgg19/vgg_model/block5_conv4/kernel"
  input: "vgg19/save/Identity_31"
  attr {
    key: "dtype"
    value {
      type: DT_FLOAT
    }
  }
}
node {
  name: "vgg19/save/restore_all"
  op: "NoOp"
  input: "^vgg19/save/AssignVariableOp"
  input: "^vgg19/save/AssignVariableOp_1"
  input: "^vgg19/save/AssignVariableOp_10"
  input: "^vgg19/save/AssignVariableOp_11"
  input: "^vgg19/save/AssignVariableOp_12"
  input: "^vgg19/save/AssignVariableOp_13"
  input: "^vgg19/save/AssignVariableOp_14"
  input: "^vgg19/save/AssignVariableOp_15"
  input: "^vgg19/save/AssignVariableOp_16"
  input: "^vgg19/save/AssignVariableOp_17"
  input: "^vgg19/save/AssignVariableOp_18"
  input: "^vgg19/save/AssignVariableOp_19"
  input: "^vgg19/save/AssignVariableOp_2"
  input: "^vgg19/save/AssignVariableOp_20"
  input: "^vgg19/save/AssignVariableOp_21"
  input: "^vgg19/save/AssignVariableOp_22"
  input: "^vgg19/save/AssignVariableOp_23"
  input: "^vgg19/save/AssignVariableOp_24"
  input: "^vgg19/save/AssignVariableOp_25"
  input: "^vgg19/save/AssignVariableOp_26"
  input: "^vgg19/save/AssignVariableOp_27"
  input: "^vgg19/save/AssignVariableOp_28"
  input: "^vgg19/save/AssignVariableOp_29"
  input: "^vgg19/save/AssignVariableOp_3"
  input: "^vgg19/save/AssignVariableOp_30"
  input: "^vgg19/save/AssignVariableOp_31"
  input: "^vgg19/save/AssignVariableOp_4"
  input: "^vgg19/save/AssignVariableOp_5"
  input: "^vgg19/save/AssignVariableOp_6"
  input: "^vgg19/save/AssignVariableOp_7"
  input: "^vgg19/save/AssignVariableOp_8"
  input: "^vgg19/save/AssignVariableOp_9"
}
versions {
  producer: 26
}
